q_model.pth (torch, 37327 bytes, 8 tensors)

layer1.weight f4 [64, 4]
00000000: 675a 5b3f fc68 03bf 6e7b 493f ba0d 353d
00000010: f5cd 4a3f 1bff 01bf 655f 60bf 499f bfbe
00000020: 8b33 84be 515b f03e f28f 53bf 22a5 fc3e
00000030: d218 b53e fd0f 01be 6102 e4bf 3d19 3a3f
00000040: 87ba d63e c5a2 1cbe bcce d1bf 10a0 0bbf
00000050: 9fec a3bf 6635 223f 1ac9 afbe b107 97be
00000060: 16f0 453f 3797 b93e 140c 44bf 8336 db3e
00000070: cfe5 583f 3b65 2b3f 1590 55bf 7a38 68bf
00000080: 8732 91bf 8ae1 c13e 78ee bdbf 716d 15be
00000090: 4739 603f c303 3ebe c2bb 22bf 26c6 013f
000000a0: 8a7c 7cbf 3d8d 3d3d 04bd cf3f 6ebc 4bbf
000000b0: e41b 86bf e842 3a3f 2f40 bfbf 51d4 d63e
000000c0: 31c1 84bd af51 a7bc 2d3b 9bbf b791 eebe
000000d0: 6c65 4cbf 4947 a73e 1147 41bf 540f d73e
000000e0: 97f7 923e 768d 853e 291f a23f 86df a8be
000000f0: 2950 093e 7d58 3bbe 29ad a93d ed3d 2dbf
00000100: 9abc 84bf b4d4 7f3f adb6 ef3e 06de 71bf
00000110: c25f 59bf ea46 313f 4d73 0a40 98f7 823f
00000120: b832 1ebf 4d67 3b3f e7e4 21bf 4d20 013f
00000130: 7e55 803e 490c 54be 7634 0cc0 1466 2abf
00000140: 986a b73d 3b88 0d3e 027d 8fbf 9888 69bf
00000150: d3df c63e d901 1a3f bea2 a93f 1b8e fb3e
00000160: d740 493f 8dab 2a3e 2af6 cebf 7255 00bf
00000170: 67a3 d93e 1c2c 043e c5e6 c33f 636a 2f3e
00000180: 5f28 89be 0898 48be ec2b babf 8140 d8bc
00000190: 0b78 f43e fb97 46bf 30fc 423f d722 50bf
000001a0: 0332 adbe ba07 833e ce4a 8b3f 6fbd 89bf
000001b0: 6624 86bf 5687 c23e 42e9 b83f 7c4c 1f3f
000001c0: db1c 383f 333d 22bf 3082 97bf 162e 41bf
000001d0: a7dc aebc 503d 933e 2a12 db3f e182 7a3f
000001e0: 6307 7cbf e0ed 0a3f 33de 383d 3747 ec3e
000001f0: 3ced adbe 3d3d e8be e37c 463d dae1 c3be
00000200: fe24 0ebf f493 3dbe 1954 4cbe 45d7 c33e
00000210: 47c6 553f f980 babe 7cde a9bf ec48 033f
00000220: c40e 2ebf ea14 cb3e 4021 5bbf a961 823e
00000230: 415d 893e 9047 0b3f 5458 a3bf dfdc 083f
00000240: a6c0 0fbf df0f d73d d679 d1bf a9a7 4cbf
00000250: 8ea9 003f 42f9 8b3f 3c34 8bbf 0f40 213f
00000260: 1ce5 22bf 2ce2 013f 12fb d73f e98a 263f
00000270: 8f51 1bbe be8d d63e 5dae 513f 60c5 643f
00000280: 93af 3a3f 348e a4be 8381 a43f a253 fb3e
00000290: e277 493f b748 393f 9cac c43f 8d6b 35bf
000002a0: 26e9 2ebe 1ad5 b83d 854b 17c0 0e5a 01be
000002b0: 5b80 58be b770 fc3e 1577 783d af48 8dbf
000002c0: fa80 61be f735 ecbe 0327 d3bf 3d42 723f
000002d0: 1d41 093f d6a0 76bf 93e9 873f fe90 343f
000002e0: b677 97be 01db 393e e545 db3f dd8f 8bbf
000002f0: 81df 783f 13c6 24bf 3a63 27bf 21f7 55bf
00000300: 7131 ca3e a036 48bf fc9a d8bd abb2 29be
00000310: 585b 513f 52a9 28bf 8aff 9abf b6e2 023f
00000320: bf49 4f3f 0f17 e7bc 269c 99bf d882 163d
00000330: 6565 2abf 1656 163f d580 9e3f 063e 57bf
00000340: e0a5 c63f d5e2 66bf 446e cbbe 2b9d 51bf
00000350: 53d9 9d3e 3d58 ae3e ab47 243f 7e1a 00bf
00000360: 2ceb 9b3f 4a33 3cbf acbb 05bf 9d80 81bf
00000370: a9e4 f2bd 696b 0e3e 1999 14c0 08d9 c43d
00000380: 3faa 7dbf d3c7 903e 9ab5 0bbf bac9 bfbe
00000390: e58b 7abe a4f2 b33e 3870 a93f df59 99bf
000003a0: ff1d 0a3e eca5 7dbc 9eee 853f 98e5 81bd
000003b0: 4461 a73f c9df c33d 20cf 7c3f be81 563f
000003c0: b9d8 13be 87af 563f 9895 c1bf 5c3d c53e
000003d0: 1a8e 6cbf 1b02 b33d 1d53 c83f f2dd 7e3e
000003e0: 2f68 1b3f 9396 0dbf 3d51 a8bf 34b8 0ebf
000003f0: 262c e23e 32b5 86be 7732 1340 0549 ae3e
0.8568482 -0.5133207 0.78703964 0.044202544 0.79220515 -0.50779885 -0.8764556 -0.37426212
-0.25820574 0.4694467 -0.8264152 0.49344736 0.353705 -0.12603755 -1.7813226 0.7269476
0.41939184 -0.15296467 -1.6391215 -0.5454111 -1.2806586 0.6336273 -0.34333116 -0.29498056
0.7731947 0.3624818 -0.7658093 0.42815027 0.8472566 0.6695134 -0.83422977 -0.90711176
-1.1343545 0.37867385 -1.48384 -0.1459253 0.875874 -0.18556122 -0.63567746 0.50692976
-0.9862753 0.046277273 1.6229558 -0.79584396 -1.0477262 0.7275834 -1.4941462 0.4195886
-0.06482161 -0.020424692 -1.2127434 -0.46595547 -0.7984226 0.32671574 -0.75499064 0.42003882
0.2870452 0.2608449 1.2665759 -0.32983035 0.13409485 -0.18295474 0.08284981 -0.67672616
-1.0370057 0.99933934 0.46819058 -0.94479406 -0.8491174 0.6924883 2.1632874 1.023181
-0.6179614 0.732045 -0.632399 0.5043991 0.25065225 -0.20707811 -2.190702 -0.6656201
0.08955878 0.13821499 -1.1210024 -0.9122405 0.3884264 0.6015907 1.325279 0.49131855
0.7861456 0.16667004 -1.6168873 -0.5013038 0.4250748 0.12907451 1.53048 0.17130427
-0.26788613 -0.19589245 -1.4544654 -0.026397945 0.47747836 -0.77575654 0.7616606 -0.8130316
-0.33827218 0.25591832 1.0882204 -1.0760936 -1.0479858 0.37993878 1.4446185 0.6222608
0.7191903 -0.6337463 -1.1836605 -0.75460947 -0.02134545 0.28757715 1.7114918 0.97855955
-0.9844877 0.5426922 0.04513378 0.46148083 -0.33970058 -0.4535922 0.048458945 -0.3825825
-0.55525196 -0.18513471 -0.19953956 0.38250175 0.8350567 -0.36426523 -1.3271022 0.51283145
-0.6799128 0.39664394 -0.8559761 0.25465134 0.2682896 0.5440607 -1.2761331 0.5346202
-0.56153333 0.10501074 -1.6365306 -0.7994333 0.5025872 1.0935442 -1.0875316 0.6298837
-0.63630843 0.50735736 1.6873496 0.6505571 -0.15167831 0.41905016 0.8190668 0.8936367
0.72924155 -0.32139742 1.2852024 0.49087244 0.7869855 0.7237658 1.5365176 -0.70867234
-0.17081127 0.09025021 -2.3639843 -0.1263201 -0.21142714 0.49304745 0.06066044 -1.1037806
-0.22021857 -0.46134922 -1.649628 0.9463232 0.5361498 -0.96339166 1.0618156 0.7053374
-0.2958352 0.1814995 1.7130705 -1.0903279 0.9721604 -0.6436474 -0.6538578 -0.83580214
0.39490846 -0.7820835 -0.10576436 -0.16572063 0.81780005 -0.6588336 -1.2109234 0.51127183
0.809719 -0.028209237 -1.2000778 0.036745876 -0.66560966 0.58725107 1.2383066 -0.84079015
1.5519371 -0.9018987 -0.39732563 -0.81880444 0.30829868 0.34051695 0.64171857 -0.50040424
1.2181144 -0.7351576 -0.5223949 -1.0117375 -0.1186002 0.13908161 -2.3218443 0.09611708
-0.990879 0.28277454 -0.54573977 -0.37458593 -0.24467428 0.35146058 1.3237371 -1.1980551
0.13488005 -0.015481453 1.0463445 -0.0634262 1.3076558 0.09564168 0.9875355 0.8379172
-0.14438142 0.83861583 -1.5123777 0.38523376 -0.9240433 0.08740636 1.5650364 0.24889353
0.60705847 -0.55307883 -1.3149792 -0.5574982 0.44174308 -0.26310116 2.2999551 0.34040084

layer1.bias f4 [64]
00000000: fb69 cd3d 1f26 ca3e 468d ba3e ace1 d23e
00000010: 27bb 01bf 868f a53e 9b22 8c3e 021f fbbe
00000020: f418 5f3e 285a 44bf 9a2e 1c3e db9c 603e
00000030: b572 84be faca 52bf d68e a23e 833f ca3e
00000040: 373b 873d 8d81 04bf a056 113e ee25 07bf
00000050: 0361 acbe d396 56be e2c8 96be 3796 9d3e
00000060: 7eb6 bf3e 405e 843e 145e 9a3e 887a 10bf
00000070: dcaa efbe e248 c3be 417a 093f cf35 b9be
00000080: 3c04 033e e259 eabe 3ba1 99be 0776 86bd
00000090: e144 11bf e3a2 0f3e e593 a8be d9f1 f4be
000000a0: dd2d 9bbe e458 5abe 6ffc bbbe d0ee 4bbe
000000b0: 77e6 81be 0530 a8be e0f9 1e3e c140 09bf
000000c0: f6ed d6bd e70e 3a3e 7b67 c13e aba3 963d
000000d0: db9d 47bf e7d7 78be ecf3 28bf 4ac3 81be
000000e0: bcfa 5dbe 531d 993d 1124 043f 8728 09bf
000000f0: a66b 86bd 8e1b 70be 5466 90be 4873 3abe
0.1002998 0.3948221 0.36435908 0.411878 -0.50676197 0.32336062 0.27370152 -0.49047095
0.21786863 -0.7670007 0.15252152 0.21934836 -0.25868765 -0.8234097 0.317496 0.3950158
0.06603091 -0.5176018 0.14193201 -0.5279225 -0.33667764 -0.20955972 -0.29450136 0.30778667
0.37443918 0.25853157 0.301499 -0.5643697 -0.46810043 -0.38141543 0.5370217 -0.36173865
0.12794584 -0.457717 -0.30005822 -0.06565481 -0.56745726 0.1402698 -0.32925335 -0.47840765
-0.30308428 -0.21322972 -0.3671603 -0.19915318 -0.25371143 -0.32849136 0.15525007 -0.5361443
-0.10494606 0.18169747 0.37774262 0.07355436 -0.77975243 -0.2430111 -0.65997195 -0.25344306
-0.21677679 0.07476296 0.5161753 -0.53577465 -0.06563501 -0.23448011 -0.2820307 -0.18208039

layer2.weight f4 [64, 64]
00000000: 67df 4bbe 7dcb 8b3e d7ac 94bd 9188 863c
00000010: 3586 f33d 557a afbd 3dc1 b83e 3a33 8a3e
00000020: 94cd 86be 9930 61be 8c3c 31be 03c6 babe
00000030: 1f8d abbe 12e4 6abe 23ec 693d 25c9 a5be
00000040: 8060 7ebe 21ea 1fbe c4ef 8bbe 172d 373e
00000050: 066f ca3d 047b 153e 0ed3 433e ef67 98bd
00000060: 5791 0ebf 8fd3 b23d ae53 a23b 2050 773d
00000070: 76cd d13c 430f fa3e 9bca a2be 81c7 2b3d
00000080: 4e86 cbbe d5a3 abbe 8d97 223e bba0 a13e
00000090: b32e b3be 2dab 0abd 6a3b 57bc 25f7 2fbe
000000a0: 32bb 973e 24ad 2b3d bc42 78bf e6cd c53d
000000b0: 8b10 11bd e1cb 8f3e 1c8a babd 6617 87be
000000c0: 8951 9a3e 8e29 5dbe 6203 8a3e 4b4f 74be
000000d0: 5dad f8be 0675 59be 827b c1bd 5d46 0cbe
000000e0: 18d5 2bbf 2dff 713e a301 923e 3c3d 3f3d
000000f0: cdc1 bdbd a4a0 95bf 3172 f03d 64fe 093e
00000100: f20c b83e 55f1 0fbe 7c05 fdbe d4fa efbe
00000110: 7a6c 31be a7ea cfbe 96fc dcbe e659 20bf
00000120: 8b3c 7cbf 98bc 92bc 2359 a53d 33b9 32bf
00000130: 143c f63d b708 e3b9 50ed e93d 412d 93bf
00000140: 69c7 b9be c71a a03e 07a2 dfbe e1f3 63be
00000150: fd27 febe 6f0d 1f3f 49fc 9abe 624b 243f
00000160: 09e3 b5be 4941 c7be 1252 8dbe a505 8e3e
00000170: 732e 9bbd 9e23 2e3f 06d6 b7bd 6a78 3fbd
00000180: ae7f 20be be73 d1bd 38d3 ed3d 1786 74be
00000190: 85bc f03d 74fa bdbe a3e3 7f3f db9f cc3e
000001a0: 6380 843e 0529 3bbe 5b8f 80bd 4d4e 93be
000001b0: 0f70 01be 1c9a 3d3d c951 f53d 4ff5 cfbd
000001c0: 5cda 6e3e 2305 463d 5222 7cbf 4487 60bc
000001d0: 52f7 8cbe e89c cc3c f5e1 f0be acbe 5dbe
000001e0: ec4b a3be 37c7 943d 721e 433e 9ccd c43e
000001f0: 16ec 9fbe e705 f13e 3bca 43bf 935f c63e
00000200: 72cb 02bc 8ddb 08bf 4bde 9ebd 9e1d b4be
00000210: 788f bdbe 3296 14be ab8e 643e c15a 8abe
00000220: adfb 48bf 71db c1be 536a f03d d46e 21bf
00000230: e47a 12bf 9801 01be a727 9fbe d570 e3be
00000240: 7bdf 2bbd c4ee a0be c313 a3be 09ef 0abf
00000250: 0753 b3be 5d6b a03e aa29 adbe 1106 ec3e
00000260: 39c2 abbe 77ba b0be 8485 a1bd 6ddf b9bc
00000270: 9ebf 1d3e bc18 31be 936d 233e e27a 39bf
00000280: 87b0 cfbe 8b1d e1be fda2 3dbf 985f 89be
00000290: 5908 21bf 58d0 83be 4198 5cbd 7843 a53c
000002a0: 8716 c6be a3d6 813e 3e64 36bf 0965 d6bd
000002b0: b843 8fbd bd21 09bf b357 13be 7e94 053e
000002c0: 5d99 9cbe 6a62 efbe b6d4 d3bd 64db fcbd
000002d0: 40d5 debe a961 1e3e 54a4 62be b964 06bf
000002e0: cb4f 9abe c2da 82be 3ae5 a43e 99b7 87be
000002f0: c87a 24be 417e 7d3e 3ffe 76bc 6922 b13d
00000300: acab d4be 2341 b0bd 7f12 523c 30bf 38be
00000310: d42a ba3e 3aeb d53c d07d 54be d9a7 95bc
00000320: def5 9bbe a120 5cbe f896 4bbf 1de2 08bf
00000330: ae71 913e fd75 afbe 2138 51bf 73aa 843e
00000340: 7dd5 d6be 1adb a03a 44db 7bbe 2e6a 793d
00000350: 0b55 c2be 6a3f cabe 7476 73be bcbc 83bf
00000360: fe2f 483d 8753 3cbe 069d ffbe 4a35 723e
00000370: 4d7e cb3e ba9c 553e 11c7 81bf 96ee 0e3e
00000380: 8e1c fdbe 8fb9 99be bfb5 733c 263e 82bd
00000390: 119b c0bd 8289 b93e ff01 f13d b589 8abe
000003a0: 529c 3ebe 0bf3 dfbe eafe 2e3f 7bcd 8dbd
000003b0: 36ec edbd 7e08 e1bd 5fd7 83bf 6cc0 243e
000003c0: 57cf 9cbd 30f0 05be 53fc 713e d4b9 20be
000003d0: 869d 803e 8874 0dbf cf62 4c3e b3fa 0c3f
000003e0: bc83 103e 646e ebbe de63 debe 7e79 c1be
000003f0: 58e5 af3d 3ff7 303e 4808 353d e966 183e
-0.1990944 0.27303687 -0.07259529 0.016422542 0.11890832 -0.08568255 0.3608493 0.26992208
-0.2632872 -0.21991195 -0.17308253 -0.36479196 -0.33506104 -0.22938564 0.057109963 -0.32380024
-0.248415 -0.15616657 -0.27331364 0.17888294 0.09884457 0.14597708 0.1912348 -0.07441699
-0.5569052 0.08731758 0.004953823 0.060379148 0.025610667 0.4883977 -0.317952 0.04193831
-0.39750904 -0.3352343 0.15878125 0.3156794 -0.34996566 -0.033854652 -0.013136724 -0.17184122
0.29635006 0.041913167 -0.9697683 0.09658413 -0.035416167 0.28085235 -0.091083735 -0.2638504
0.3014033 -0.21597883 0.26955706 -0.23858373 -0.48569766 -0.21236047 -0.09447385 -0.13698716
-0.6712203 0.23632498 0.28516874 0.046689257 -0.0926548 -1.1689649 0.1174053 0.13475949
0.35947376 -0.14056905 -0.49418247 -0.46871054 -0.17326537 -0.40608713 -0.43161458 -0.62637174
-0.9852988 -0.017912194 0.08073642 -0.6981384 0.12023178 -0.00043303307 0.11422217 -1.1498185
-0.3628495 0.3127043 -0.43678305 -0.22261001 -0.49639884 0.62129873 -0.30270603 0.64177525
-0.35524777 -0.38916996 -0.27601677 0.2773868 -0.07577219 0.680231 -0.089763686 -0.046745695
-0.15673706 -0.10227154 0.116125524 -0.23879276 0.11754707 -0.37105143 0.9995672 0.3996571
0.258792 -0.18277366 -0.06277343 -0.28770676 -0.12640403 0.04628955 0.1197849 -0.10154211
0.23325485 0.048344743 -0.9848987 -0.013704125 -0.2753244 0.024977162 -0.47047392 -0.21654767
-0.3189386 0.0726456 0.19054583 0.38438118 -0.31234807 0.47074816 -0.76480454 0.38744792
-0.007983075 -0.5346001 -0.07757243 -0.35178846 -0.3702352 -0.1451042 0.22320049 -0.27022365
-0.78509027 -0.37862733 0.1173903 -0.63059735 -0.57218766 -0.12598264 -0.3108494 -0.44422022
-0.041961174 -0.31432164 -0.31851014 -0.5427099 -0.35024282 0.31331912 -0.3382085 0.46098378
-0.33546618 -0.3451726 -0.07886794 -0.022689546 0.15405127 -0.17294592 0.15959768 -0.7245313
-0.40564367 -0.43967852 -0.74076825 -0.26830745 -0.6290336 -0.2574489 -0.05385614 0.020173773
-0.38689062 0.25359067 -0.7124671 -0.1046849 -0.06995338 -0.53567106 -0.14388923 0.13044927
-0.30585757 -0.4675477 -0.10343306 -0.12346533 -0.43522072 0.15466942 -0.22132999 -0.5249744
-0.30139002 -0.25557524 0.32206136 -0.2650726 -0.16062462 0.24755193 -0.015075265 0.08649141
-0.41537225 -0.08606174 0.012821793 -0.18041682 0.363608 0.026113141 -0.20751119 -0.018268513
-0.3046102 -0.21496822 -0.79527235 -0.5347002 0.28407043 -0.34269705 -0.8172627 0.25911292
-0.41959754 0.0012272329 -0.24595362 0.060892276 -0.37955508 -0.39501506 -0.23775655 -1.0291972
0.048873894 -0.18391238 -0.49924487 0.2365314 0.39744797 0.20860568 -1.0138875 0.13958201
-0.49435848 -0.30024382 0.014874875 -0.0635951 -0.094045766 0.36237723 0.11767959 -0.27058187
-0.18614319 -0.43740115 0.6835772 -0.06923958 -0.11617319 -0.10987948 -1.0300101 0.16089028
-0.076567344 -0.13079906 0.2363141 -0.15695888 0.2512018 -0.5525594 0.19959567 0.55070037
0.14112753 -0.4598266 -0.43435568 -0.37788004 0.08588666 0.17281817 0.04419735 0.14883007

layer2.bias f4 [64]
00000000: a953 693e 2637 97be 87ca 86bd 5801 b1be
00000010: 655e 913e 7573 d4bd 5a13 053f 4a75 913e
00000020: 4c67 ecbe aebc 223e 7e92 c63c 0f04 10be
00000030: c70d 6ebe ea2f fbbd 9c5b 52bc bc83 143e
00000040: 7edd a23e b9ad ffbe 5f55 cbbe d575 4bbe
00000050: 583b df3e bc4f 9f3c a4df bf3d 084f b0bd
00000060: b280 903e b50a 62be c524 70be 79a1 083f
00000070: 1c02 30bf 1263 8c3d be49 c6be 7cd2 39be
00000080: e73f 943e b24a 72bd c748 643c c90f d53a
00000090: 8f84 c0bd d161 08be 4abb 08be a20e 00bd
000000a0: d3b2 313e 527f 0d3e 7204 72bc 416f efbc
000000b0: aed2 673e 0000 0000 f0f4 7dbc 3110 e03e
000000c0: 2357 043f 77c3 e7be 79c1 a83d bffd 03bf
000000d0: 999b 5fbe 8674 efbd eded a2bd e0bb 393d
000000e0: 5a91 533e 74df 01bd 4c2c 36bd eb54 08bf
000000f0: 31f1 92be 8553 92be 4e28 39be 02c6 cfbe
0.2278582 -0.29534262 -0.06581598 -0.34571338 0.2839233 -0.10373584 0.51982653 0.28409797
-0.4617256 0.15892288 0.024239775 -0.14064048 -0.23247443 -0.12264998 -0.012839224 0.14503378
0.3180961 -0.49937227 -0.3971357 -0.19869168 0.43599963 0.0194472 0.09368828 -0.08608824
0.28223187 -0.22074397 -0.23451526 0.5337139 -0.6875322 0.06854834 -0.38728136 -0.181467
0.28955004 -0.059153266 0.013933367 0.0016255315 -0.094002835 -0.13318564 -0.13352695 -0.031263955
0.17353372 0.138181 -0.014771568 -0.029227855 0.22638962 0.0 -0.015500292 0.43762353
0.5169546 -0.45266315 0.08240027 -0.5155906 -0.218367 -0.11692147 -0.07955537 0.045345187
0.20660916 -0.031707242 -0.04447584 -0.53254575 -0.2869964 -0.28579345 -0.18081781 -0.40580755

layer3.weight f4 [64, 64]
00000000: 1e2f 043e 7e02 f2bf cab1 97bd 7fe2 d7be
00000010: 7376 88be 3da3 43bd 02c9 0f3e edaa 843d
00000020: 2dbf de3b 1646 c53e 8eef a63e 666a a23e
00000030: 507c 3dbe 4745 0f3e 58b1 843e aa63 a83e
00000040: 178e 93bd 8a01 3cbf 0c88 8e3d 5df9 2ebe
00000050: 109c 9cbd 9df0 a7be e1c9 84be 19e2 b3be
00000060: e7e8 f83d a550 7ebf 1259 a2be 5482 48bc
00000070: 8ac2 37bf 342b 41bd d16a d1be 1870 983d
00000080: 9b67 3ebe 31d8 56bd 8bda dfbd b637 21bf
00000090: 7f8b 6a3e 48d1 7b3e c287 fabe 879a 333e
000000a0: 6842 8a3e 7a45 983a 0eb5 76bd dc07 20bf
000000b0: 8cc6 0f3e 447d 93be 604b 2c3e ed11 30bd
000000c0: e0c2 323e 918b 6fbf 91b4 20bc 162e 06bf
000000d0: 3e45 93bf 8e93 8a3e 3c7a ef3c 43b4 f0be
000000e0: d823 46bd 8da7 5ebe d3d0 b4bd c53b aabf
000000f0: 4e58 dcbd 587e b6bc 0eb8 e33d 8a80 afbf
00000100: 9ed2 86be 1877 993e 8ad9 493d 49e2 d6bd
00000110: 524b e7bd 736e 4c3e a1d7 78be e7fe 2c3d
00000120: e46f b5be 6f2a 4abe 3da0 07bf e52a 11be
00000130: 8b7d 2dbd b7d7 64be d972 b8be 2253 75bf
00000140: 90ea 05bf de91 85be bb48 723e a393 a6bc
00000150: 9fdb a63c 96e6 2f3e 0d4f 753d 4824 d5be
00000160: c8ae 87bf cf41 33be 38af 11bd da2b bb3d
00000170: ee79 d7bd 5d63 693e 5f32 773e 5b77 643d
00000180: b1d6 3fbe e373 74be f983 1fbf 544a 2a3f
00000190: 6201 24be 3f6a 11bc fede efbd 1c4f 423d
000001a0: b74f 28bf ee9d 1cbf fb57 823e 0f38 ec3e
000001b0: f7f9 babf daa9 85be 561b 963e f5cb a43b
000001c0: a84a 52bf 7293 5f3d 72e0 51bf 9fa0 ebbd
000001d0: e504 e43e 71fe cebe 337e 003e fd85 383e
000001e0: fd87 6fbd 0013 d7bc 8418 16be 7aa0 9d3d
000001f0: fb68 073f e19d a93d 3d3b 913e 14ba 333e
00000200: 3220 fcbc 4cf6 26bf 763d 9d3e 5bc4 56bf
00000210: 3ccd babd 390e c0bd eee0 3bbe 610a 30bb
00000220: a9fe 6f3e e82c 363e 4765 683e 885e 0abc
00000230: 29e7 fb3d f738 68bd fcc9 87be 41e1 de3d
00000240: 8ccb 83be 3fb2 fdbe b040 b4be 0df2 1f3e
00000250: be3e e6bd c43e d53d cc2e ecbc d4f2 f43d
00000260: 71c3 4e3e 1021 b7be 09ea 5cbe bc34 b53e
00000270: c5dd 4cbe 300d bbbe 83a9 5dbf 3707 5a3e
00000280: f444 3f3e 3ca4 48be eca8 4d3e aace a6be
00000290: df77 b6be ff4c d9be 842e 8ebe 5585 d43a
000002a0: edfb f83d b5a8 773e ebfb 2a3e 4f9a e8be
000002b0: 3e4b 2f3e 7573 8f3e f2ad 48bd f6fa a13e
000002c0: f73a e0bc 9a18 9abf 2b0d 66bd cff1 2cbf
000002d0: b635 a2bf 8f69 99be d392 31be e46b 1b3e
000002e0: 290d be3d 339a 643e 6b11 10be c2df 62be
000002f0: 4e39 55bf bce9 0abf e5d5 933e 936c d3bf
00000300: c347 ab3d 4583 2abf 160f aa3e eeb8 1ebf
00000310: 1c6b 41be 14a1 e83d d47b a63e 1837 f6bb
00000320: 0c07 76bd 8e4b 893d 65f2 86be 9e39 e83b
00000330: 9ba6 f6bd f8d4 1bbe 7983 6c3e dff6 3e3e
00000340: 3bd9 b83e 4d86 b6be c99c 0ebe 4f9f 24bd
00000350: 463c c63d 5e51 7d3e 7833 293e abd0 8e3e
00000360: 9d44 883d 50fc ebbe 9a48 7fbe 49c9 873e
00000370: 0260 03bf 18c1 2ebf 95c7 46bf 1290 3fbe
00000380: 9b44 daba fa0f 1bbd 60e2 5fbe c285 f7be
00000390: 276d b8be 9feb d83d 5bfe 8fbe 63c6 173e
000003a0: 04eb 813e 4735 f3bd b09c 0ebe 8fe0 20bf
000003b0: 56bb 83bd 211c 9cbe 874e 223e ed39 7e3c
000003c0: 9e42 f03c 1309 8bbf f594 873c e575 aebe
000003d0: f007 96bf 8fbf 6ebe 2967 013e 7410 e1be
000003e0: f02c febe eb97 b83c 5993 eb3e ac7c 22bf
000003f0: 587d 63bf a17c 10bf ef91 65bc f190 99bf
0.12908599 -1.890701 -0.074069574 -0.4216499 -0.2665287 -0.047763098 0.14041522 0.06477914
0.0067976923 0.38530034 0.3260464 0.317218 -0.18504453 0.13991271 0.25916553 0.32888538
-0.07204836 -0.7343985 0.06959543 -0.17087312 -0.07646954 -0.3280076 -0.2593527 -0.35133436
0.121537976 -0.99341804 -0.3170858 -0.012238104 -0.7178122 -0.047160342 -0.40901807 0.07443255
-0.1859421 -0.05245227 -0.10930356 -0.62975633 0.22904776 0.24591553 -0.489317 0.17539416
0.2700379 0.0011617385 -0.06023126 -0.6251199 0.14040583 -0.28806508 0.16825628 -0.042985845
0.17457151 -0.93572336 -0.009808675 -0.5241407 -1.1505506 0.270657 0.02923309 -0.4701253
-0.048374027 -0.21743603 -0.088288926 -1.329949 -0.1075903 -0.022277042 0.1111909 -1.3711102
-0.26332563 0.29973674 0.049279727 -0.10492379 -0.11293663 0.19964008 -0.24301006 0.04223528
-0.35436928 -0.1974275 -0.5297888 -0.14176519 -0.042356055 -0.22347914 -0.36025122 -0.95829976
-0.5231104 -0.2608785 0.23660557 -0.02033407 0.020368395 0.17177805 0.05988984 -0.41629243
-1.0600214 -0.17505573 -0.035567492 0.091392234 -0.10521303 0.2279181 0.24140309 0.05577789
-0.18734242 -0.23872332 -0.6231075 0.66519666 -0.16016153 -0.008875429 -0.11712454 0.047438726
-0.65746635 -0.6117848 0.2545775 0.4613652 -1.4607533 -0.2610615 0.2931773 0.0050291964
-0.82145166 0.054583974 -0.819831 -0.115052454 0.44534984 -0.40428498 0.12548141 0.18019862
-0.058479298 -0.026254177 -0.1465779 0.07696624 0.5289456 0.08282066 0.28365508 0.17551452
-0.03077707 -0.6521957 0.30710953 -0.83893365 -0.091211766 -0.09377713 -0.18347523 -0.0026861655
0.23436989 0.17790568 0.22694884 -0.00844539 0.1229995 -0.05669495 -0.2652129 0.108828075
-0.2574123 -0.49550053 -0.35205603 0.15619679 -0.11242436 0.10412362 -0.028830908 0.11960378
0.20191742 -0.35767412 -0.21573652 0.35391796 -0.20006473 -0.365335 -0.8658678 0.21291815
0.18678647 -0.195939 0.2008397 -0.32579547 -0.3563833 -0.42441556 -0.27769864 0.0016214052
0.12157426 0.2418545 0.16697662 -0.45430228 0.17118546 0.28017774 -0.048994012 0.3163678
-0.027371867 -1.2038758 -0.0561649 -0.6755647 -1.2672641 -0.29963347 -0.17341165 0.15177876
0.09279854 0.22324447 -0.14069144 -0.2215567 -0.83290565 -0.542629 0.28874126 -1.6517509
0.08363297 -0.6660655 0.33214635 -0.6200093 -0.18888515 0.11358848 0.32516348 -0.007513892
-0.060065314 0.06703864 -0.26356807 0.0070869466 -0.12043496 -0.1521796 0.23097028 0.18648861
0.36103234 -0.35649338 -0.13926996 -0.04019099 0.09679465 0.2473807 0.1652354 0.27893576
0.06653712 -0.46090937 -0.24930039 0.26520756 -0.5131837 -0.6826339 -0.7764829 -0.18707302
-0.0016652526 -0.037857033 -0.21863699 -0.48344237 -0.36020777 0.10591816 -0.28123745 0.14821772
0.25374615 -0.11875396 -0.13926959 -0.6284265 -0.06432216 -0.3049021 0.15850268 0.01551674
0.02932864 -1.0862144 0.01655052 -0.3407432 -1.1721172 -0.23315261 0.12637009 -0.43957865
-0.4964366 0.022533378 0.46010855 -0.63471484 -0.88863134 -0.5644017 -0.014011844 -1.1997358

layer3.bias f4 [64]
00000000: a018 363f f0e0 10be cee1 453f 0f65 543f
00000010: 9f36 0f3f 9ebe 4c3c 832c d3be 52ca 2b3f
00000020: fb65 1dbe 0e8d 263f b536 3c3f c508 2b3f
00000030: e489 073f 52d6 de3d f93a 1abe 2821 2b3f
00000040: 187b aebe 9468 333f 2d10 a6bd 506e f1bd
00000050: 662d 973e c647 a0bd f608 163f 37d9 443f
00000060: b963 5c3f b683 b1be 5499 d8be 77ce 423f
00000070: 5ba5 2a3f 3978 503f f0ec 44be 1b1b 403f
00000080: bde6 bb3e f540 fcbd 5359 99bd 2fa7 e6bd
00000090: 9cad 19be 34c5 50be 745f de3e 8c15 4b3e
000000a0: 6df6 a03d 3a58 32be 41cd 3a3f 3647 183f
000000b0: 8685 3cbe a192 113d 168e 343f 4ab0 11be
000000c0: 4f19 4abe e9cf 9fbe fbb8 83bd 593f 8ebd
000000d0: bbc2 d23d c5ae 8b3e 42bd 00be 08d2 323f
000000e0: 6429 b9bd 07f8 03be 8ae6 3cbe 6280 d3bd
000000f0: 115c bfbd 9412 69bd 246f e1bd 2a3e e1bc
0.71131325 -0.14148307 0.77297676 0.82966703 0.5594272 0.012496619 -0.41244897 0.6710559
-0.15370934 0.6505898 0.73520976 0.66810256 0.5294478 0.10880722 -0.15061559 0.6684747
-0.34078288 0.7008145 -0.08108554 -0.117886186 0.29526824 -0.0782619 0.58607423 0.76893944
0.86089665 -0.346708 -0.4230448 0.7609629 0.6665856 0.81433445 -0.1923101 0.7504136
0.36699477 -0.12317077 -0.0748774 -0.112623565 -0.15007633 -0.20387727 0.434322 0.19832438
0.07859502 -0.17416468 0.7296944 0.5948366 -0.1841031 0.035540227 0.70529306 -0.14227405
-0.19736217 -0.3121331 -0.064317666 -0.06945676 0.10291048 0.27281776 -0.12572196 0.6985173
-0.09041098 -0.12887584 -0.18447319 -0.103272215 -0.09343732 -0.056902483 -0.110075265 -0.027495462

layer4.weight f4 [2, 64]
00000000: 3f98 5f3f b58f 983e 8b12 f93e 199e 333f
00000010: 1b2a 763c b881 5ebf 4f76 12bf c51f a73d
00000020: ed2e c0ba 289d af3c 1625 983e 382d c73e
00000030: e8b5 613f 9121 743e 3a33 113e 10e8 d93e
00000040: 82a0 67be 35a3 b33e 7b85 0f3e 73f0 363e
00000050: e2a8 de3e ecb0 1dbf 83e0 323f 3e06 ce3d
00000060: 9a42 c53e 1149 18bf 2714 113f 8931 8a3e
00000070: dcc2 6f3e 308c 483f a455 66bf cd1f 9e3d
00000080: fe6e 27be 40e8 14be 0d69 843f b7ce 4abe
00000090: 84d3 e5bf 0410 aabd 0cba 8ebe 1439 c33e
000000a0: 84c9 a5be bcee 8f3f 6ddf b23e fcf2 43bd
000000b0: 685d 213e 31e6 b53e efe4 5c3e fc93 bb3e
000000c0: 9425 60be f44d eabe 4d46 5a3e 5023 813e
000000d0: d2a9 a2be 8bf1 b43e b1bf 0cbf 99e9 d53b
000000e0: 845b dbbc e067 1dbf 5b9c a3bf 76d4 803e
000000f0: d40e 82bf 22c8 90bf 17e5 9f3e 18f8 13be
00000100: 2e2b 943e 399d 5cbe a9f0 143f c212 293f
00000110: ce3b f83e 23d3 e7bd 7ed2 ebbe b18a a33e
00000120: 6b42 053d 9094 873e 0865 d93e 384e 0b3e
00000130: 3a18 35be d5d1 89bf c528 9c3e 1632 173e
00000140: 3ea2 ecbe 7a1b d93e 5052 cdbd 517d d1bc
00000150: 7de6 afbe 5ad9 783d 0583 1c3d 3fbb 9d3e
00000160: 8fa9 093f 3c10 4b3e 1b62 31bf a326 b53e
00000170: 5d78 6b3e 4950 233f 5141 083f 0ced 813e
00000180: c9f2 933e 6051 2bbe 03d5 d4be b9c8 48bd
00000190: a221 143e 9d1d c5bc c5cc d33e 51ca 2bbf
000001a0: a83e b1be 584f 69bf 60a5 b73e 9d9a 3b3e
000001b0: e45f 9bbe aae6 45bf e654 323e a60c cabe
000001c0: 0809 ccbd 057b 9dbf e87b 7bbf 5487 a5be
000001d0: da98 fb3e f297 89bd b7c1 ec3f 45e0 383f
000001e0: 8b29 29be 8d3a 3f3f 74c9 c4be 1af5 473e
000001f0: 7644 053e 8cf0 fd3d 08ad bebf 620b 143f
0.87341684 0.2979714 0.4864696 0.7016311 0.015024687 -0.86916685 -0.57211775 0.081603564
-0.0014662422 0.021437243 0.29715794 0.38901687 0.8816819 0.2384093 0.14179698 0.42559862
-0.22619823 0.35085455 0.14015763 0.17865162 0.43488222 -0.61598086 0.6987383 0.10059784
0.38527375 -0.5948649 0.56671375 0.26990917 0.23414177 0.7833891 -0.8997443 0.07720909
-0.16350934 -0.14541721 1.0344559 -0.19805418 -1.7955174 -0.08303836 -0.27876318 0.38129485
-0.32380307 1.1244731 0.34936085 -0.04783915 0.15758288 0.35527185 0.21571706 0.3663634
-0.21889335 -0.457626 0.2131588 0.25222254 -0.31770188 0.35340533 -0.5498 0.006528091
-0.026777036 -0.61486626 -1.2782091 0.25162095 -1.0160775 -1.1311076 0.3122947 -0.14450109
0.28939193 -0.2154435 0.5817972 0.6604425 0.48483127 -0.11319568 -0.4605903 0.3194175
0.032534044 0.26480532 0.42459893 0.13604057 -0.17685023 -1.0767161 0.30499855 0.147652
-0.4621753 0.42403775 -0.100254655 -0.02557245 -0.34355536 0.060754158 0.038210887 0.3080692
0.5377435 0.19830412 -0.6929032 0.3538104 0.22995134 0.6379438 0.53224665 0.25376165
0.28896168 -0.16730261 -0.41568765 -0.04901955 0.14465955 -0.024061972 0.41367164 -0.67105585
-0.34618115 -0.91136694 0.3586836 0.18320699 -0.30346596 -0.7730509 0.17415199 -0.39462775
-0.0996266 -1.2303168 -0.9823594 -0.3232981 0.49140054 -0.067184344 1.8496617 0.7221721
-0.16519754 0.74698716 -0.38434947 0.19527093 0.13014397 0.12399396 -1.4896555 0.5782987

layer4.bias f4 [2]
00000000: a233 223f dff4 343f
0.63360035 0.70686144
