q_model_lunar.pth (torch, 12495 bytes, 8 tensors)

layer1.weight f4 [32, 8]
000000 6e 86 2b 3e 92 2d f2 bd 5d 72 ea bf 3a 4b 20 40
       0.167505 -0.11825098 -1.8316151 2.5045915
000010 f2 17 d1 bf b0 1a 3d bf ff 7d 78 bf e6 35 13 bf
       -1.6335433 -0.73868847 -0.97067255 -0.5750412
000020 f7 6e 68 3e ec d9 ac 3e ad 73 db 3e bb 7c f6 3c
       0.2269858 0.3376001 0.4286169 0.030088773
000030 43 a6 de bf 6d fc 20 c0 83 c0 de bf d1 fa 96 bf
       -1.7394489 -2.5154068 -1.74025 -1.1795293
000040 db f5 45 3f e4 76 85 c0 0d 86 37 bf 8d 49 3c bf
       0.7732827 -4.170763 -0.7168892 -0.7354973
000050 26 96 a2 3e 5f 10 f1 3e 38 3c ae be e1 a3 9c bf
       0.3175518 0.47082803 -0.34030318 -1.2237512
000060 8f 6d 8d bc ea f2 bb bd ce 07 af be e5 d0 cc bf
       -0.017264156 -0.091771916 -0.34185642 -1.600125
000070 bd 6c ad 3f 08 87 63 bf 3f ef 80 bf a0 8c b0 be
       1.3548809 -0.88877916 -1.0073012 -0.34482288
000080 9a 6f 8b 3e 72 68 ac 3e 6c 7a 0f 3f 35 bf fd 3e
       0.27233583 0.33673435 0.56046176 0.49559942
000090 2b 03 b0 3f a7 71 9c 3f e5 d6 37 3f b0 c4 2c be
       1.3750967 1.2222184 0.7181228 -0.16871905
0000a0 7e 60 34 3f f2 19 a3 3f 5f 4d de bf a7 02 ef bf
       0.70459735 1.2742293 -1.7367362 -1.8672684
0000b0 41 54 f9 be 72 b9 4e 3e c1 2a c7 be c0 83 fa 3e
       -0.48697093 0.2018793 -0.38899806 0.48928642
0000c0 1f 79 9d bf 9f e7 a2 c0 6b ec 82 bf 7e 3e 40 3f
       -1.2302588 -5.090774 -1.0228399 0.75095356
0000d0 57 43 48 3f b3 ff 3b be 4d ba 4c be 37 c9 84 3f
       0.7822775 -0.1835926 -0.19992943 1.0373906
0000e0 ac 8e 09 3f bd a8 a5 3d 4d e1 77 3f 1b 30 82 3f
       0.53733325 0.08088825 0.96828157 1.0170931
0000f0 91 76 fc bf 01 18 a5 3f 63 22 2d bf 64 8c 59 be
       -1.9723684 1.289795 -0.67630595 -0.21244961
000100 0e 81 3a 3e 4c d2 19 c0 48 bd 88 bc 51 00 0d bf
       0.18213293 -2.4034605 -0.016691819 -0.5507861
000110 d7 af bf bf c2 74 a4 be ce c8 09 3f 41 47 e6 be
       -1.4975537 -0.3212033 0.5382203 -0.44976237
000120 cc fb 9d be c9 84 41 3e 5f 5a cb bf 1b ab 85 3f
       -0.30856168 0.1889831 -1.5886954 1.0442842
000130 5a ea 8e 3f b3 09 c2 3f 91 61 f4 3e 19 a9 ca be
       1.1165268 1.515921 0.47730687 -0.39582136
000140 41 98 ae 3e 5c 19 07 c0 7f 8d b7 3e d4 01 49 3f
       0.34100536 -2.1109228 0.3585014 0.78518414
000150 8c 4a d9 3d 85 87 bc bf ef 37 89 3f 9e 9c e1 bf
       0.10609922 -1.4728857 1.0720195 -1.7625921
000160 76 c7 a0 3d 5c de 79 3e 0c 04 41 40 3e c4 03 40
       0.07850544 0.2440123 3.015872 2.0588527
000170 f2 cf 84 bf 28 ed e8 be b5 2b 8a 3c 87 b3 de 3e
       -1.037596 -0.45493436 0.016866544 0.43496343
000180 9c 1c 1e 3f 92 88 93 c0 17 d9 35 3f c7 76 bf be
       0.61762404 -4.610421 0.7103438 -0.37395307
000190 69 60 19 3f 0a e3 ea bf 72 35 ae be 24 8f 38 3f
       0.59912735 -1.8350537 -0.3402515 0.72093415
0001a0 ce 9d c8 3f a1 8a b9 c0 74 99 89 3f 1d f5 26 bf
       1.5673158 -5.7981725 1.0749955 -0.65217763
0001b0 d8 33 48 bf 13 46 86 3e a4 e7 e9 3e 47 a1 8f bf
       -0.7820411 0.26225337 0.4568454 -1.1221093
0001c0 45 8d 47 3d 5d 1b 09 3e 91 85 3d 40 60 71 11 bf
       0.04871871 0.13389345 2.9612772 -0.5681362
0001d0 7e 07 6d 3e 90 1b b9 be f2 65 1d bd 5c 54 95 3e
       0.2314739 -0.3615384 -0.0384273 0.29165924
0001e0 d8 78 88 3e 4f 9f 01 c1 c1 9d 7c 3f dc e4 7e bf
       0.26654696 -8.101394 0.98678213 -0.9956796
0001f0 8c 48 06 3f ab cf e3 be ea 65 e5 3e a1 fe ee 3e
       0.5245445 -0.44494376 0.44804317 0.4667864
000200 18 b0 36 bf 17 ff 86 bf fd 7e 7f bd 3c de 9e 3f
       -0.7136245 -1.0546597 -0.062376965 1.241157
000210 14 30 e0 be c5 ac 9d 3e 32 34 77 3f cb 48 19 bf
       -0.4378668 0.30795875 0.9656402 -0.598767
000220 f1 e0 5e be 95 2f 59 be 94 ce 5c be 3a 78 c1 3f
       -0.21765496 -0.21209557 -0.21563178 1.5114815
000230 29 7f 64 bf 31 4a f1 bf d5 44 26 be b2 10 79 3f
       -0.8925653 -1.8850766 -0.16237195 0.972911
000240 18 af 61 3f e7 22 be be 48 a3 b3 3f 88 11 7b 3f
       0.88157797 -0.37136003 1.4034204 0.98073626
000250 cf 4e ce bf f6 53 22 3e 19 85 ce 3e 02 f3 f4 bd
       -1.61178 0.15852341 0.4033592 -0.119604126
000260 62 6c 15 bf c1 b8 23 c0 be de 77 bf b3 e9 c9 3f
       -0.58368504 -2.5581515 -0.9682425 1.5774444
000270 e0 c2 06 3f 21 13 4e 3f 48 11 62 bf 82 b6 16 3e
       0.52641106 0.8049794 -0.8830762 0.14718059
000280 22 5e 8d bf e8 4d fc c0 e7 e5 ed be 6d da c4 bf
       -1.1044352 -7.88451 -0.46464464 -1.5379158
000290 f2 9b 72 be d6 4e 94 3e 78 13 89 be 01 1a 75 3f
       -0.23692301 0.28966397 -0.26772666 0.95742804
0002a0 97 6a 4a bf da 72 ed c0 3f b5 12 be 97 3a a0 bf
       -0.79068893 -7.42027 -0.14326952 -1.251788
0002b0 a6 76 3d 3f f0 29 2f bf 5d f2 b3 3d e4 c3 cb 3e
       0.7400917 -0.68423367 0.087864615 0.3979789
0002c0 c6 87 1f be 44 f0 8c c0 15 56 9b 3e 27 79 9c be
       -0.15579137 -4.4043293 0.30339113 -0.30561182
0002d0 09 cd 83 bd 60 29 b8 3f 27 00 39 3f 7f a4 c4 be
       -0.06435592 1.4387627 0.7226586 -0.3840675
0002e0 cc a7 82 3e a7 c1 09 3e 3c a7 34 3e d7 7a e1 3f
       0.25518644 0.13452779 0.1764192 1.7615613
0002f0 e9 54 f7 3f 56 7a af bd a9 d4 29 bf 65 7a 62 3f
       1.9322788 -0.085682556 -0.6634012 0.8846801
000300 49 4c 15 3e 36 db 77 3e f0 72 ff 3f da 3f 37 bf
       0.14579882 0.24204716 1.9956951 -0.71581805
000310 2d 25 e0 bc 86 7e 6b 3f 75 3b 6b bd bd c3 d2 bd
       -0.027361477 0.91989934 -0.05742975 -0.1029124
000320 c2 74 8d 3e 06 2e 83 3e 99 1a 19 40 58 ac b7 3e
       0.27628142 0.2562105 2.3922484 0.35873675
000330 40 6a 53 40 8a 53 44 be aa dc 01 bf ff cd 5d bf
       3.30336 -0.19172493 -0.5072733 -0.8664245
000340 ab 01 c9 be 6a 33 11 c0 c2 28 45 bf d5 59 e5 3d
       -0.39259085 -2.268763 -0.77015316 0.11198775
000350 bd 58 91 bf 5c dd 44 bf 52 e1 b7 bf 57 a4 88 bf
       -1.1355206 -0.7690027 -1.4365637 -1.0675153
000360 a1 80 44 be 94 5e c8 c0 95 f7 62 3d 9f a9 de bf
       -0.19189693 -6.261545 0.055411894 -1.7395514
000370 ba 24 87 3d e3 9f 18 3e 7f ae 2c bc cc 2f 94 3d
       0.06598802 0.14904742 -0.01053965 0.07235679
000380 9d e9 3b 3f f5 a0 ec c0 4d ed 25 3f 0d ab 33 bf
       0.7340334 -7.394648 0.6481522 -0.7018288
000390 de a0 ad bf 88 81 10 bf ab 11 8b 3e 3b 09 d6 be
       -1.3564718 -0.5644765 0.27161917 -0.41803917
0003a0 dc 6c 99 3e 76 5a 92 be 9e 04 12 bd 88 0e a3 bf
       0.29965866 -0.2858464 -0.035648935 -1.273881
0003b0 65 91 f7 3f 7d 75 80 3f 42 d4 6b bf 03 94 04 c0
       1.9341246 1.0035855 -0.92120755 -2.071534
0003c0 2f dc a4 3e 7a f3 dd c0 c0 1d c0 3d a8 84 cf be
       0.32199237 -6.9359713 0.09380674 -0.40530896
0003d0 d9 af 2b bf 10 89 c3 bd 19 0f 43 be 67 68 58 3d
       -0.670652 -0.09547627 -0.19048728 0.05283394
0003e0 2f f0 53 3e ab 56 a0 bc 26 d3 86 be 29 5c 90 40
       0.20697092 -0.019572577 -0.26332968 4.51125
0003f0 77 b8 0f bd d0 72 fc bd ef 5e 05 bf ea d6 70 3f
       -0.03508803 -0.12326586 -0.5209798 0.9407793

layer1.bias f4 [32]
000000 30 7f bb be 87 4f 19 3f f8 9e a4 3e 6c 4c bb be
       -0.36620474 0.59886974 0.32152534 -0.36581743
000010 15 84 ae bd b6 0d e4 3d 8c cb cd be 41 3c 83 3e
       -0.085212864 0.11135428 -0.40194356 0.25631908
000020 79 8d 06 be f6 93 e0 3e 84 9b b8 be 8a ff 5a 3e
       -0.13139905 0.43862885 -0.3605615 0.21386543
000030 81 1e bf be a0 ce 7c bf 5e f1 4c 3d 35 a6 8a be
       -0.3732796 -0.98752785 0.050034873 -0.2707993
000040 a4 d7 02 3f 56 2e 91 be e4 ca 2f bf 19 f0 c8 be
       0.5111029 -0.28355664 -0.6866896 -0.3924568
000050 7b 6f 10 3e 07 a5 16 be be c8 14 bf 36 e3 86 3f
       0.14105026 -0.1471139 -0.5811881 1.0538089
000060 67 04 26 3f 51 67 30 bd b3 ae d1 be 90 d2 8d bd
       0.6485047 -0.04306728 -0.40953597 -0.06924927
000070 7c 49 a1 be b5 07 60 3e a8 fe b3 3d c9 f1 f6 3d
       -0.31501377 0.2187794 0.08788806 0.120578356

layer2.weight f4 [32, 32]
000000 85 36 94 bf 65 e5 3d 3e 29 5a 4c be ed e2 a0 be
       -1.1579138 0.18544538 -0.19956268 -0.3142313
000010 09 18 0f 3f d8 46 c6 bd b8 36 cb 3e b0 eb 26 bf
       0.5589605 -0.09681481 0.39690185 -0.6520338
000020 1e b7 9d bf 94 17 6c 3f 6a f8 94 bd 47 32 6f bf
       -1.2321508 0.9222348 -0.07273944 -0.9343609
000030 e4 ee cf 3f 7a 9b 1e bf b6 79 1f be 39 2f 59 3f
       1.6244779 -0.6195599 -0.15573773 0.8483768
000040 e3 fd f1 bf bd 6e c1 3f 26 83 1a bf bd 52 56 3f
       -1.8905605 1.511192 -0.60356367 0.8372
000050 78 01 a7 3e 9b 99 b2 3f 46 16 da 3f 8d 37 39 be
       0.32618308 1.3953127 1.7038047 -0.18087597
000060 51 7c 1c 3f 41 da 6a 3d 76 8f e8 3d 42 95 0c 3f
       0.6112719 0.05733705 0.11355488 0.5491525
000070 5e 13 25 3f f6 3d 42 3f 33 e0 86 bd b4 56 ce bf
       0.64482677 0.75875795 -0.06585731 -1.612021
000080 86 3d 41 bf db 5a 89 be da 08 37 3e d8 af 5a bf
       -0.754845 -0.2682713 0.1787447 -0.85424566
000090 aa 68 66 3e ed 6b d7 bf 07 bd 19 bf ff b6 54 bf
       0.22500864 -1.6829811 -0.6005406 -0.8309173
0000a0 45 d3 e6 3e 6d b9 84 3f 5d 63 04 3d 40 1b 24 3f
       0.4508306 1.0369087 0.032321323 0.6410408
0000b0 17 96 3e 3f 7e 1c ee 3e 6a 10 ac bf ad 23 52 3e
       0.7444777 0.46506113 -1.3442509 0.20521422
0000c0 42 de 27 3f b1 e9 3d 3d bd 70 b2 3f 43 a9 d8 bf
       0.65573514 0.046365444 1.3940655 -1.6926655
0000d0 10 16 0f 3f ef 6c c6 bf 1e 57 ec bd ca e9 9b be
       0.5589304 -1.5501994 -0.11540054 -0.30451804
0000e0 dd 97 96 be 43 c8 bd bf 35 bd e3 be bf f0 60 3e
       -0.29412737 -1.482674 -0.4448029 0.21966837
0000f0 99 23 48 3f c1 12 48 bf fb 2b aa 3f 3d 21 25 3f
       0.7817932 -0.78153616 1.3294672 0.6450384
000100 29 9f a2 3f c3 e1 08 bf 3f 39 6b 3f 74 23 01 3e
       1.2704822 -0.53469485 0.91884226 0.1261118
000110 da 69 8e be a1 23 09 be f8 03 27 be 80 f8 8d be
       -0.27815133 -0.13392498 -0.16310108 -0.27728653
000120 15 04 4b 3f fe 45 f3 be 20 55 97 bf 8c 7a 59 bf
       0.79303104 -0.47514337 -1.1822853 -0.84952617
000130 fe ac b6 3f 0b a3 95 bf 59 88 08 3f 99 c7 e9 3e
       1.4271543 -1.1690382 0.5333305 0.45660093
000140 9d 04 ce 3e a6 5b 91 be 52 da de bf 2e d4 70 bf
       0.40237895 -0.28390235 -1.7410376 -0.9407376
000150 96 eb db 3e bd 31 49 3f bd 5b 38 3f c9 f6 41 be
       0.42953175 0.7859152 0.7201498 -0.18941797
000160 e9 70 5b bf 79 0b a9 be 79 83 17 3f ff 84 b0 3e
       -0.8571916 -0.33016565 0.59184986 0.34476468
000170 74 6c 6f 3e 1d a0 c4 3e de 7e 41 3f b3 96 e5 bc
       0.23381215 0.38403407 0.7558421 -0.02802596
000180 76 e9 3a 3f 2e 93 b0 3f e8 52 9c bf ac df 8d 3f
       0.73012483 1.3794916 -1.2212801 1.1083884
000190 f0 21 26 bf c5 07 d3 3e a6 21 d1 bf 16 64 c6 bd
       -0.64895535 0.41216865 -1.6338394 -0.09687059
0001a0 65 93 17 bf 83 b6 c3 3d 11 c7 fe 3c 56 7a 91 3e
       -0.5920928 0.09556296 0.031100782 0.28413647
0001b0 7a 62 74 3e 6b 68 c1 3f e9 72 1f bf e0 ff ae 3c
       0.23865691 1.5109991 -0.62284714 0.021362245
0001c0 d0 46 96 be 2b 4c 7f 3f 32 74 cf 3e 75 df 68 bf
       -0.293509 0.997256 0.40518337 -0.9096597
0001d0 4a 97 13 c0 ad 92 13 be 62 63 53 be 9e 6a ca be
       -2.306109 -0.14411421 -0.2064338 -0.39534467
0001e0 01 ab f1 bd 90 fb 2c bf b0 91 06 3f 8e 8a d7 bf
       -0.118001945 -0.67571354 0.5256605 -1.6839159
0001f0 a5 b7 5f bf c1 e8 25 3f 4c 8b d8 bf fd 54 ba c0
       -0.87389594 0.6480828 -1.691751 -5.8228745
000200 78 0f 6c be 88 96 1e c0 69 a7 b7 be 24 4d 96 3e
       -0.23052776 -2.4779377 -0.3586991 0.2935573
000210 dc 54 72 bf a7 f3 b2 be d0 b9 3d 3e 32 e3 3c bf
       -0.94660735 -0.34951517 0.18527913 -0.7378417
000220 df 20 67 3f f9 6c cf bf 96 a7 cb bf 93 c8 a2 bf
       0.9028453 -1.6205131 -1.5910518 -1.271746
000230 13 e3 47 3e 70 bb 70 3e ec db 84 3e 4d 88 75 3f
       0.19520216 0.23509002 0.25949037 0.95911103
000240 0f 09 a3 be e2 3e f0 bd ad 3f 52 bf b8 d1 99 be
       -0.3184285 -0.11730744 -0.8212841 -0.30042815
000250 47 20 45 3f e1 b5 8c 3f 55 4a 93 3d f8 33 0e 3e
       0.77002376 1.0993005 0.07191912 0.13887012
000260 86 ad 4e 3e 4d 84 80 3e 15 54 1a 3f 9e 01 b0 3e
       0.20183381 0.25100937 0.6028455 0.34376234
000270 b3 8d e0 3f fc b7 97 be 04 05 91 3f bf a5 2a 3e
       1.7543243 -0.29632556 1.1329656 0.1666479
000280 10 c2 d8 be f9 0d a5 bf 9e 41 85 3f c9 96 15 ba
       -0.42335558 -1.2894889 1.041065 -0.00057063677
000290 10 ed bd bf 9d f6 db 3e 33 9f 2f bf 43 5b f8 3e
       -1.4837971 0.42961589 -0.68602294 0.48507127
0002a0 4c 18 66 3f 42 af 06 c0 e9 7f f8 be 80 a7 0d bf
       0.89880824 -2.104447 -0.48535088 -0.5533371
0002b0 73 0c 27 bf 70 28 4f 3f 9f d6 63 bf e4 f4 b5 3e
       -0.6525337 0.8092108 -0.8899936 0.355384
0002c0 a3 c7 7b bb 91 de f7 be 02 34 de 3e 18 1a 81 be
       -0.0038418553 -0.48411992 0.43399054 -0.2521522
0002d0 e9 09 4f be d3 f3 13 3f bc c0 64 3e 97 68 df be
       -0.20218624 0.5779392 0.22339147 -0.43634483
0002e0 fa 2f 53 bf 85 f6 d2 be d9 68 49 bf d8 52 92 be
       -0.8249508 -0.41203704 -0.7867561 -0.2857883
0002f0 9a 53 2b 3f 3e 99 e5 bf 10 ba c6 bc d0 98 ed be
       0.6692444 -1.7937391 -0.024258643 -0.4640565
000300 4b 61 9d 3f 1a e4 28 bf 11 eb df 3f f1 86 2d 3f
       1.2295316 -0.65973055 1.7493612 0.6778403
000310 ca 3a 82 3d 6f d7 05 bf ec 09 f2 be c1 62 ee bf
       0.063588694 -0.5228185 -0.47273195 -1.8623887
000320 c1 49 15 3e 6c e8 7e be 0c 0e 47 bf 70 20 50 bf
       0.14578916 -0.2489335 -0.7775581 -0.81299496
000330 84 2a c4 3e 07 4a 1c 3f 6c 05 2d 3f 0b 5f e3 3e
       0.38313687 0.61050457 0.675864 0.4440845
000340 e7 37 ca be ac 17 b9 be 9a 0f 36 c0 bc 4b 24 bf
       -0.39495775 -0.36150873 -2.8447022 -0.6417806
000350 8c 51 91 3e 8d cb 9a bc 14 5d 18 3f 12 c2 b5 bf
       0.28382528 -0.018895889 0.59517026 -1.419985
000360 64 5b c4 bd 98 6d 0b 3f ba 87 a3 3f fc bb 9f 3e
       -0.09587744 0.544641 1.2775795 0.31198108
000370 3d 80 b1 be 3c 38 ba bd d5 66 8d be 25 83 18 3e
       -0.3466815 -0.09092757 -0.27617517 0.14893778
000380 12 cb b1 be a1 c3 96 3e a7 cc aa 3e 00 f9 13 be
       -0.34725243 0.29446128 0.33359262 -0.14450455
000390 48 31 8c be b9 4f db be f8 ed b6 be de d7 0f be
       -0.2738135 -0.4283426 -0.3572843 -0.1404719
0003a0 af 2a 60 be e7 d5 3b 3e e8 98 9b be fb 07 c3 be
       -0.21891282 0.18343316 -0.30390096 -0.38092026
0003b0 90 28 93 bd 20 af 86 3e 24 14 54 be e2 86 e1 bb
       -0.07185471 0.26305485 -0.20710808 -0.0068825344
0003c0 76 48 2f bd d0 63 ea be 44 1d ee be 8a 57 53 3e
       -0.042793714 -0.45779276 -0.46506703 0.20638862
0003d0 d5 25 86 be 98 f4 af be b1 7d 86 be f7 af d0 3d
       -0.2620074 -0.34366298 -0.2626777 0.10189813
0003e0 69 42 ba be f6 4d c8 be ea 1c a5 be 36 75 47 3e
       -0.36378792 -0.3912198 -0.32248622 0.19478306
0003f0 a0 f1 02 bc 6e 73 02 be 41 34 ea be 20 58 9f be
       -0.007992178 -0.12739345 -0.45742992 -0.31121922

layer2.bias f4 [32]
000000 b4 b4 05 be b0 b5 0b bf 3c 9d b0 3e 2d 93 23 3f
       -0.13057214 -0.5457411 0.3449496 0.6389645
000010 15 3e 01 be d5 d7 c3 bd 36 54 14 bf ed 0f e7 bd
       -0.12621339 -0.09562651 -0.57940996 -0.112823345
000020 9a 63 2e 3f 1f 25 3b be 22 00 0d be 9b c7 21 bf
       0.6812073 -0.1827588 -0.13769582 -0.631952
000030 61 3d 87 be b7 1a 84 be 26 29 1c 3f 84 ff ac 3e
       -0.26414016 -0.25801632 0.6100029 0.33788693
000040 3e be fc be fe 89 2e bf 65 64 20 bf c0 0e fa 3e
       -0.49363893 -0.6817931 -0.6265319 0.48839378
000050 1e d1 48 be e0 b9 56 be cd c4 16 be 8b 9f 88 be
       -0.19611022 -0.20969343 -0.14723511 -0.26684222
000060 4d 66 2d be 88 52 16 be b0 9b 20 3e 31 9d a0 be
       -0.16933556 -0.1467992 0.1568439 -0.31369928
000070 48 a4 21 bf 6c db 63 3d da 20 d4 be 86 6c 7c be
       -0.631413 0.05562918 -0.41431314 -0.24650773

layer3.weight f4 [32, 32]
000000 06 5c 50 3f df b5 30 be 06 1c ce 3e 17 3a 23 3e
       0.81390417 -0.17256878 0.40255755 0.15940128
000010 7b e3 88 3f 86 5d 3b bf ee 8d 36 bb 18 ee df 3d
       1.0694422 -0.7318958 -0.0027855593 0.10934085
000020 0d d2 35 bf a5 95 9c bf 1c c9 24 bf b7 4a 36 3f
       -0.7102364 -1.2233168 -0.6436937 0.71207756
000030 a6 30 4a bf 57 36 85 3d 7a 0b 4f bf a9 00 8d bf
       -0.7898048 0.06504505 -0.80876887 -1.1015826
000040 8a a2 4f 3f e3 21 7f 3f 15 b1 00 3f ec 1c a5 3e
       0.8110739 0.9966108 0.50270206 0.32248628
000050 d2 bd d7 3f 9d 73 e6 be 4c 4c 8b 3f 15 5f dc be
       1.6854804 -0.4501008 1.0882659 -0.43041292
000060 b0 3e 66 3e 12 fd 96 3f 2a da 5e bf 53 1e c3 be
       0.22484851 1.1795981 -0.8705164 -0.38109073
000070 3d b2 ff 3e 14 cb f4 3e 8f 2a ef be d0 77 02 3f
       0.49940673 0.47811186 -0.46712157 0.5096407
000080 a3 29 e4 3f e2 ad d2 bf 1b 4a 91 3f 50 6f ec bf
       1.7825207 -1.6459315 1.135074 -1.847147
000090 dd d3 a4 3e d8 ff 6b be 19 40 e4 3e e2 5c c0 be
       0.3219289 -0.23046815 0.44580153 -0.37570864
0000a0 ff 5c 4a bf 63 61 bc bf 4b d1 9d bd 3c 1f 75 bf
       -0.7904815 -1.471722 -0.07705935 -0.95750785
0000b0 4c ae c7 3e 61 b4 73 be da e6 24 bf 5d 7c bf be
       0.39000165 -0.23799278 -0.6441475 -0.3739957
0000c0 7c 8c fe 3e 87 76 51 3f c8 57 3c bf b5 5b 29 bf
       0.49716556 0.81821483 -0.73571444 -0.6615556
0000d0 16 2b 7e 3f 71 e4 ae bf 5e 84 18 3f b5 68 7f be
       0.99284494 -1.3663465 0.59576976 -0.24942286
0000e0 97 86 50 be 03 fc 83 3e e9 30 b8 bf de 80 33 3f
       -0.20363842 0.25778207 -1.4389926 0.7011851
0000f0 66 88 fc 3c 49 d8 ca bf 5e 34 53 bf 77 60 a0 3f
       0.030826759 -1.5847255 -0.8250178 1.2529439
000100 95 5f 87 3e 86 a9 eb 3e 96 ce 4f bf 3c c9 99 be
       0.2644011 0.46027774 -0.811746 -0.30036342
000110 a2 31 07 bf ba 5b 11 3e c6 ec 95 bd 54 1f df bd
       -0.5281011 0.14195147 -0.073205516 -0.10894647
000120 de 7c d3 bf 07 58 11 3f 95 7b 31 be 82 b2 b7 3d
       -1.6522481 0.56774944 -0.17332299 0.089695945
000130 40 f7 15 be 32 7b 13 bf 01 df 1a 3f 31 20 02 bf
       -0.146451 -0.57609856 0.60496527 -0.5083037
000140 f1 13 79 bd 03 1b 41 bf 0d 30 0b 3f fc eb 2b 3f
       -0.060810033 -0.7543184 0.54370195 0.6715696
000150 e2 fe 40 3e 66 74 71 be fe 83 b6 be 79 6e a2 be
       0.1884723 -0.23579559 -0.35647577 -0.3172491
000160 4b 1d 95 bd f2 ba c7 bf c6 cd 62 3e 73 42 ab be
       -0.07280978 -1.5603926 0.22148809 -0.33449134
000170 d6 89 22 bf 1e 83 a2 bf 8e c3 38 be 1b 2a 5e 3f
       -0.6349157 -1.2696264 -0.18043348 0.86783
000180 64 f6 b7 3f 83 71 a2 3f e6 99 b8 3d f5 6d 81 3e
       1.4372067 1.2690891 0.09013729 0.25279203
000190 20 d7 29 3f 3d 3b 54 3c 26 94 2f 3e 27 8a e7 bd
       0.6634388 0.012953577 0.17146358 -0.11305647
0001a0 8c a8 37 c0 72 70 ea bf 43 63 f5 be 3a 8c f2 3e
       -2.8696623 -1.8315566 -0.47927293 0.4737261
0001b0 2d 8b 23 be 06 56 45 3f 0c 0a 19 be 5a 12 9f bf
       -0.1597106 0.77084386 -0.14945239 -1.2427475
0001c0 eb 65 70 3f 33 5d 1d 3f 64 0e ac 3f 37 74 25 3d
       0.93905514 0.61470336 1.3441892 0.040394034
0001d0 13 95 99 3f 6d 18 02 bf b9 31 a5 3f b0 e3 98 bf
       1.1998619 -0.5081852 1.2905799 -1.1944485
0001e0 6c 2d 47 bf 3d 66 a5 3f 2f 04 19 3e f1 1e dd be
       -0.77803683 1.2921826 0.14943002 -0.4318767
0001f0 e9 1c bb 3f 53 99 9a 3f bf e1 c9 3f 3e aa 9c 3f
       1.4618198 1.2078041 1.5772017 1.2239454
000200 76 df 9a bf 9d 76 0d bf 4d e9 80 bf d9 e1 13 bf
       -1.2099445 -0.55259115 -1.0071198 -0.5776649
000210 59 8e 3e bf 71 92 cb be 03 23 fa 3c 1c 05 a9 bd
       -0.74435955 -0.39760163 0.030534273 -0.08252928
000220 0b 94 3b 3f 00 19 8c 3e 54 45 af 3f 02 74 ba 3f
       0.7327277 0.27362823 1.3693032 1.4566653
000230 de f8 b7 be 80 97 f9 3e c6 4c 82 be d6 f5 d7 bc
       -0.35932058 0.48748398 -0.25449198 -0.02636234
000240 32 bd c8 3e ad 9d ea bf 83 63 b1 bb a6 a3 51 3f
       0.39206845 -1.8329369 -0.005413474 0.8189033
000250 6f 96 d6 bf a1 db db 3e 96 0d 2d bf 95 d9 ae 3e
       -1.6764659 0.42941 -0.67598855 0.34150377
000260 8c d9 50 3f 1c 29 4b 3f bc fb 03 3e c1 f4 a3 3e
       0.8158195 0.793596 0.12888998 0.3202267
000270 c2 00 8a be 3d 7e ad be 4e c8 3f 3e 2c 71 93 3e
       -0.26953703 -0.33885375 0.18728754 0.2879728
000280 01 6d 10 bf fb 3a 13 3f a4 bd b9 3e 82 95 fd bc
       -0.56416327 0.5751187 0.36277497 -0.03095508
000290 8d 34 8c bf be c7 21 bf 3a be 58 3f 57 97 72 3e
       -1.0953537 -0.6319541 0.8466526 0.23690544
0002a0 84 81 6c bf 08 08 62 3d 66 ca b9 3c 18 5d 98 be
       -0.92385125 0.05518344 0.022679519 -0.29758525
0002b0 78 37 3f 3e 09 4e 68 3f 21 4d e7 3e ed c3 7b be
       0.18673503 0.9074407 0.45176032 -0.24586459
0002c0 d7 34 16 3f 11 31 fa be 33 1d d7 3e b2 05 1a bf
       0.5867438 -0.4886556 0.42014465 -0.6016494
0002d0 ff 0b 8e 3f 76 b6 97 3e 66 11 08 bf 3d 0e 07 c0
       1.1097411 0.29631394 -0.5315155 -2.110244
0002e0 38 3e d9 3e 7b 6e 03 bd 27 a6 78 bd a1 2f 0c 3f
       0.42430282 -0.032087784 -0.06070533 0.54760176
0002f0 ad 21 2c 3e 47 a0 13 be 07 76 fa bd eb 49 82 3f
       0.16809721 -0.1441661 -0.12229543 1.0178808
000300 da 21 a9 3e 0c 11 bd be 8f 50 6a bf ff a3 a3 be
       0.3303364 -0.36927068 -0.9152917 -0.31961057
000310 54 c4 82 bd db f1 04 be dd 84 21 be 92 13 86 bd
       -0.06385103 -0.12982886 -0.1577334 -0.065467015
000320 26 84 1d 3f 04 f0 89 be 64 2d 34 3f dc 11 27 bf
       0.6152977 -0.2694093 0.7038176 -0.65261626
000330 8b 05 95 3f 51 4f 1c 3f 1c 0b 81 bf 7f 0f 9c bf
       1.1642317 0.6105853 -1.0081515 -1.2192229
000340 6f e5 4f bf 48 1a 99 3e 55 16 c0 3d 50 4d aa bf
       -0.8120946 0.29902864 0.093792595 -1.3304844
000350 33 19 46 bf 14 8d 4c 3e cb 64 25 3f 35 da 35 bf
       -0.773822 0.19975692 0.6460692 -0.7103608
000360 0d 06 94 3e a6 64 57 3e bb c4 57 bf 5e 7e a8 bf
       0.28910866 0.21034488 -0.8428456 -1.3163564
000370 7b 12 25 3f 21 db 98 be 4a e5 7a be f4 de 9a 3d
       0.64481324 -0.29854682 -0.2450153 0.07562056
000380 e1 45 34 3f e1 ea 74 3e 74 54 d5 be 95 ff 0f 3f
       0.70419127 0.23917724 -0.41665995 0.5624936
000390 c3 2f d3 bd 2d da 2a 3e 00 cb 9e bf f2 65 cc 3e
       -0.10311844 0.1668479 -1.2405701 0.39921528
0003a0 d6 f6 1e bf c5 07 07 3f b7 32 04 3f 68 75 cd bf
       -0.6209539 0.5274623 0.51639885 -1.6051455
0003b0 a5 33 da 3e 6f d7 c3 3e 73 ae d2 3e 29 6f 7f 3e
       0.42617527 0.382503 0.4114872 0.24944748
0003c0 77 84 3b be 58 b6 68 bf 16 98 c9 bc c9 11 45 3f
       -0.1831225 -0.90903234 -0.024608653 0.76980263
0003d0 ab 44 10 bf a8 36 0f 3f e2 4a 06 be 1f 54 ae be
       -0.5635478 0.55942774 -0.13114503 -0.34048554
0003e0 dd f6 16 3e da 8f e1 be ee 37 cc 3e a5 06 b2 be
       0.14742608 -0.44055063 0.3988642 -0.34770694
0003f0 55 eb ce be 13 dc 71 be 0d 2a f3 be 13 6a 65 3e
       -0.4041392 -0.23619108 -0.4749302 0.22403745

layer3.bias f4 [32]
000000 d1 f3 ab 3c 93 be 3e 3d 3a de e5 3e 47 08 a0 3e
       0.020990284 0.046568464 0.44896108 0.31256315
000010 87 dd 37 bf 48 73 2f 3e b3 9b 55 bf a4 f5 ad 3e
       -0.718224 0.1713382 -0.83440703 0.3397647
000020 e1 4a 8f 3e 96 fa a4 be 87 eb f7 be a8 cc 24 be
       0.27986816 -0.32222432 -0.4842188 -0.16093695
000030 73 cd 8a be e4 81 2c 3d ff 2f d8 3e 1a 2d 5c be
       -0.2710987 0.04211606 0.42224118 -0.2150158
000040 fb ed 46 bd d0 9f 96 bd 07 58 17 be c1 50 2e bf
       -0.0485668 -0.073547006 -0.14779674 -0.6809197
000050 64 93 c6 3e 27 56 1f 3f 46 68 85 be 96 3c 45 3d
       0.38784325 0.62240833 -0.26056117 0.048153482
000060 68 90 40 be cf 25 47 be b9 79 d6 3e 82 3b 24 be
       -0.18805087 -0.19448017 0.41889742 -0.16038325
000070 a3 96 98 3e db ac 04 3f 8e 60 a8 3e 60 4b 96 be
       0.29802427 0.51826257 0.32886165 -0.29354382

layer4.weight f4 [4, 32]
000000 fa 43 69 be 7f 7a 3e bf c5 54 fd be b3 e5 9c be
       -0.22779837 -0.74405664 -0.49478737 -0.30643997
000010 4f 06 21 3f d1 62 fe bd 4d 11 0a 3f 2a 68 a7 3e
       0.6290025 -0.124211915 0.5393265 0.32696658
000020 4d 6e f4 3e 32 a7 be 3e 9c fa d2 be 61 5c ed 3e
       0.47740403 0.37236935 -0.41206825 0.46359542
000030 6a 94 89 3f c7 71 3a 3f b6 d8 17 bc d4 b5 26 be
       1.0748417 0.7282986 -0.0092679765 -0.162803
000040 30 c3 8d 3f 76 0c f9 be ab 6d 83 bf e2 2f e5 bb
       1.1075191 -0.4864232 -1.0267843 -0.0069942335
000050 d1 8a bb bc 43 8f cf 3f 61 4c 35 bb 81 9a 13 be
       -0.022893341 1.6215595 -0.0027663934 -0.14414407
000060 83 e4 e4 3d f8 61 ac bc 0a 25 37 bf f5 58 05 bf
       0.11176398 -0.021042809 -0.7154089 -0.5208886
000070 0f 0e 1d 3f eb a8 1f 3d 0f 86 9d bf 58 df 85 3f
       0.61349577 0.038979452 -1.2306536 1.0458784
000080 6f 37 8d 3e 56 e1 36 be c0 53 e6 bf 0d cc 1a bf
       0.27581355 -0.17859396 -1.7994308 -0.60467607
000090 60 d3 4f 3f c4 57 2b 3e f8 43 c4 be 08 28 82 bf
       0.8118191 0.16732699 -0.38333106 -1.0168467
0000a0 28 c6 7b 3f b4 0b 24 bf 9d b4 40 bf 32 07 b8 3f
       0.9834924 -0.6408036 -0.75275594 1.4377196
0000b0 4f ef 80 3f 0c 69 82 3e 59 d4 81 3f 1e d1 29 3e
       1.0073031 0.2547077 1.0142928 0.16583678
0000c0 98 ac fc be 7b a5 52 bf db 95 2e be f6 89 82 3f
       -0.4935043 -0.82283753 -0.17049353 1.0198352
0000d0 c4 da 76 be 4e 99 0b 3f 3c 05 34 be 41 c4 cc bd
       -0.2410689 0.545308 -0.17580122 -0.0999837
0000e0 b6 50 14 3e 57 11 29 3d 45 af 7e 3f 23 ee 25 bd
       0.14483914 0.041276302 0.9948619 -0.040510308
0000f0 35 71 59 bf e4 b5 f0 3c 25 3b d4 3e 42 16 90 3f
       -0.84938365 0.029383607 0.41451374 1.1256793
000100 bb 58 e6 be 74 c1 51 bf d8 6f 99 bf 6c 0f 2e bf
       -0.4498957 -0.8193581 -1.1987257 -0.6799228
000110 f3 03 1b bf 5b 08 cb bf 98 2c 47 bf 2c 53 ce 3e
       -0.605529 -1.5861925 -0.7780242 0.4029783
000120 b2 a9 da 3f 79 eb d9 be 72 7a 68 3f a0 e7 07 3e
       1.7083037 -0.42562464 0.90811837 0.13271952
000130 6d b6 38 bc 7f b6 86 3f db f9 7c 3f 99 c6 6a 3d
       -0.011273962 1.0524443 0.9881875 0.057318304
000140 5f 40 8e be 9a 17 74 be 44 91 a2 bf 6d 81 d3 bf
       -0.27783486 -0.23837128 -1.2700582 -1.6523873
000150 b9 13 cd 3e e9 ef a0 3f 6c e1 a2 3c c1 97 11 bf
       0.4005411 1.2573215 0.01988288 -0.56872183
000160 df 6c 83 3e 64 5d 36 be 0b c3 6a 3f ce 84 24 bf
       0.25669 -0.17809063 0.9170386 -0.64265144
000170 7e 3d 8a bf b6 cc 18 3f 2d 8d f2 3e 1d eb d2 3f
       -1.0800016 0.59687364 0.47373334 1.6478001
000180 04 0f 50 bf bc 82 9a bd e4 f9 8d bf 88 e1 70 bf
       -0.8127291 -0.07544467 -1.1091886 -0.94094133
000190 eb 85 82 3b 11 16 01 bf db c1 e8 be 02 fa 41 bf
       0.0039832494 -0.50424296 -0.454604 -0.75772107
0001a0 ca 08 af 3f fc 78 88 bf af b1 6f be 55 11 38 3f
       1.3674557 -1.0661922 -0.23407625 0.71901447
0001b0 79 e8 81 3e 10 81 4f 3f 51 9a 60 3f 21 5d 97 bd
       0.25372675 0.8105631 0.8773547 -0.0739081
0001c0 dd 6f 56 3f e7 86 4f bf b2 c9 8e bf 46 b8 77 be
       0.8376444 -0.8106522 -1.1155303 -0.24191388
0001d0 d5 d0 97 be b7 3d 20 3f e0 66 c4 3d 29 98 55 3f
       -0.29651514 0.6259417 0.09589934 0.834353
0001e0 42 a2 5e 3e 1b 16 da be c3 e9 6f 3f 35 a9 ec be
       0.21741584 -0.4259499 0.9371607 -0.46222845
0001f0 f6 d0 a1 bf dc 2b 6c 3f 7a 0b 67 3f f3 9b ff 3e
       -1.2641895 0.92254424 0.90251887 0.49923667

layer4.bias f4 [4]
000000 3c 63 25 3d b2 7c be be 3c f4 5e 3f 30 08 80 bf
       0.04037784 -0.3720451 0.8709142 -1.0002499
