q_model.pth (torch, 7823 bytes, 8 tensors)

layer1.weight f4 [24, 4]
000000 31 a0 86 3f 56 15 f4 be 46 1b 2f 3f 60 62 39 3e
       1.0517637 -0.47672528 0.6840099 0.18103933
000010 48 3f 4d bf 80 6e 1b be f8 1e 17 3f cc 26 6b bf
       -0.80174685 -0.15178871 0.5903163 -0.91856074
000020 bc 13 3a bf ae f4 7f 3f cc 98 8e bf 6c f5 47 bf
       -0.7268636 0.99982727 -1.114038 -0.7810886
000030 a6 93 72 bf 96 ab 78 3f 53 cb 92 3f 6e f3 5e bf
       -0.94756544 0.9713682 1.14683 -0.87090194
000040 60 ed 6b bf cb 6e 9a 3f e6 d2 6b 3f 6c 42 29 3f
       -0.9215908 1.2065061 0.9211868 0.66116977
000050 31 22 80 3f d4 72 0b 3f 76 38 e0 be 5c a2 2f 3f
       1.0010434 0.5447209 -0.43793076 0.68607116
000060 42 29 9c bf 00 ed 1e 3d ee 52 43 3f d0 88 ff bd
       -1.2200091 0.03880024 0.76298416 -0.12477267
000070 7c 3f 88 bf 40 7b 49 bf 94 40 ac be 86 e0 33 3f
       -1.0644374 -0.7870369 -0.3364302 0.7026447
000080 62 13 66 3f 68 a6 82 bf 61 33 96 bf 20 43 11 be
       0.89873326 -1.0207033 -1.173443 -0.14185762
000090 c0 2d fd bd 43 58 82 3f 6e b7 4b 3f 82 5f 89 bf
       -0.12362242 1.0183185 0.79576766 -1.0732272
0000a0 2b a7 88 3f 1e 15 70 3f 79 4b 84 bf 21 71 86 3f
       1.0676016 0.9378222 -1.0335532 1.0503274
0000b0 ce a8 ee be a0 2b c2 bd f2 3f 19 3f 36 3b d9 be
       -0.46613163 -0.09480977 0.598632 -0.42427987
0000c0 a0 4d 9a bf 94 7a 2b 3f 55 65 8c 3f 76 2b 8a bf
       -1.2054939 0.66983914 1.0968424 -1.0794513
0000d0 ca c9 74 3f 10 83 16 be c8 25 79 3e 60 ed e3 3e
       0.95620406 -0.14698434 0.24330819 0.4451704
0000e0 d6 cb 0f 3f a9 46 0d bf 00 2c ff 3b ec 98 5a bf
       0.56170404 -0.55185944 0.0077872276 -0.8538959
0000f0 b5 32 92 3f af 47 81 3f 47 d6 8d 3f 3e 29 9a be
       1.1421725 1.0100001 1.1081017 -0.3010959
000100 1a 6a 16 3f 40 e8 0c bd 4c 1a d0 be f0 06 c7 3d
       0.5875565 -0.03440118 -0.40645063 0.0971812
000110 65 39 1e bf 3c 1a 3b bf db c1 8d 3f 80 7a c9 bd
       -0.6180633 -0.73086905 1.1074785 -0.09837818
000120 62 d9 4e 3f ae e4 4b 3f 80 7d 0e be 52 59 a2 be
       0.8080045 0.7964581 -0.13915062 -0.3170877
000130 92 87 29 3f a1 83 27 bf 26 b6 7d bf 87 91 7d bf
       0.6622249 -0.65435225 -0.9910606 -0.9905018
000140 70 9a b9 be e4 6e 85 bf 8e 3c fc be c8 4c 3a bf
       -0.3625064 -1.0424466 -0.4926495 -0.7277341
000150 dc 28 a6 3e 0d c4 1f bf 90 c6 db bd 36 3f 82 bf
       0.32453048 -0.62408525 -0.10731232 -1.017554
000160 72 cb 34 bf c2 af 6f bf a9 cd 92 3f f0 4b 13 3e
       -0.7062293 -0.9362756 1.1469012 0.14384437
000170 ef 20 73 bf 18 5e 27 be 00 70 08 bd b4 05 9b 3e
       -0.9497213 -0.16344488 -0.033309937 0.3027779

layer1.bias f4 [24]
000000 00 00 00 00 00 00 00 00 00 00 00 00 00 00 00 00
       0.0 0.0 0.0 0.0
000010 00 00 00 00 00 00 00 00 00 00 00 00 00 00 00 00
       0.0 0.0 0.0 0.0
000020 00 00 00 00 00 00 00 00 00 00 00 00 00 00 00 00
       0.0 0.0 0.0 0.0
000030 00 00 00 00 00 00 00 00 00 00 00 00 00 00 00 00
       0.0 0.0 0.0 0.0
000040 00 00 00 00 00 00 00 00 00 00 00 00 00 00 00 00
       0.0 0.0 0.0 0.0
000050 00 00 00 00 00 00 00 00 00 00 00 00 00 00 00 00
       0.0 0.0 0.0 0.0

layer2.weight f4 [24, 24]
000000 60 5d 1c bd 14 8e 6e be 86 22 be 3e 80 7c 98 3b
       -0.038174987 -0.23296386 0.37135714 0.0046535134
000010 ee 6c a2 be a0 f4 bf 3d 60 16 2a bd a0 8c fb 3c
       -0.31723732 0.093728304 -0.041525245 0.030706704
000020 34 37 13 be 16 e5 c4 be f8 32 a7 be a0 83 fd 3c
       -0.14376527 -0.3845603 -0.32656074 0.030946553
000030 fa 57 de 3e 54 b6 9a be c0 2a 37 3d c2 70 e4 be
       0.43426496 -0.3021723 0.044718504 -0.44617277
000040 80 88 fe 3b 9c b7 fe 3e d0 c8 e0 3e 4a 17 8f 3e
       0.007767737 0.49749458 0.43903208 0.27947456
000050 0a 32 c0 be 9e 22 8a 3e 20 88 d1 3c de 24 8e 3e
       -0.37538177 0.26979536 0.025577605 0.27762502
000060 a8 4c 8d be 44 be ea be ea 73 fa be 20 e0 15 3e
       -0.27597547 -0.45848286 -0.4891656 0.14636278
000070 64 c6 cd 3e b0 a0 18 be 38 ad ec bd 68 17 b7 bd
       0.40190423 -0.14905047 -0.11556476 -0.08940011
000080 e0 a9 f8 bd d0 21 e8 3e c4 49 2a 3e c0 0b f7 3d
       -0.12141776 0.45338297 0.16629702 0.12062788
000090 ae f3 86 be 80 2e 5e bd e2 a1 8d 3e 0c 2d 22 3e
       -0.26357788 -0.054243565 0.2766257 0.15837497
0000a0 b6 67 84 3e 60 0b 34 be 0c 4a c0 be fc 16 96 be
       0.25860375 -0.17582464 -0.37556493 -0.2931441
0000b0 c0 c1 5c bd 8a 1e 80 be 30 15 1a be b8 29 88 3e
       -0.053895712 -0.250233 -0.15047145 0.2659433
0000c0 5a cf 86 3e ae 31 c7 3e 78 6c 9e 3d 44 ed 17 3e
       0.26330072 0.3890509 0.077355325 0.14836603
0000d0 3e 0e 89 3e 9c d9 86 3e b8 eb 3f be 5c 6d 9e be
       0.26768678 0.26337898 -0.18742263 -0.3094281
0000e0 3c 2b 6b be a6 9a d5 3e 30 40 04 be a0 9a 35 be
       -0.22965711 0.4171955 -0.1291511 -0.17734766
0000f0 cc ee c7 be 78 10 a2 bd 90 1f c7 3e 34 41 79 3e
       -0.39049375 -0.079132974 0.38891268 0.2434128
000100 b0 48 fd be f4 b3 5a be 70 1b 51 bd 80 74 ca bb
       -0.4946952 -0.21357709 -0.051051557 -0.0061784387
000110 68 da fc 3d 4c a1 39 3e dc 45 2e be a0 44 f2 3e
       0.12346345 0.18127936 -0.17018837 0.47317982
000120 70 e0 ed be 20 b1 da bd 24 79 30 3e 5c 8c b0 3e
       -0.46460295 -0.10678315 0.17233711 0.34482086
000130 20 5f 8a 3d 4e b3 98 be f0 0d 22 bd 34 35 11 be
       0.06756425 -0.298243 -0.039564073 -0.14180452
000140 9a 25 fb be b6 d1 fd be 60 0f 87 bd 98 ce 19 be
       -0.49052125 -0.4957406 -0.065947294 -0.15020216
000150 1e 4a aa be 68 7d 5f 3e 92 bb 84 be cc ea 8f 3e
       -0.33259672 0.21825182 -0.25924355 0.28108823
000160 92 90 9c 3e c6 0c 88 3e 30 cc 09 bd c0 86 0c 3c
       0.30579048 0.26572245 -0.033641994 0.008577049
000170 26 f6 d9 3e b0 d2 41 be b2 73 f4 be 4c b7 f6 be
       0.4257061 -0.18928027 -0.4774452 -0.4818672
000180 d2 22 a7 3e 86 b3 e8 be 78 af 44 3e 28 5f f2 3d
       0.32643753 -0.45449466 0.19207561 0.11834556
000190 14 64 8b be 7e 19 da be 0c f9 68 3e 2c 2e 77 3e
       -0.2722479 -0.42597574 0.22751254 0.24138707
0001a0 b0 32 a1 be 9e cb be 3e b8 e8 ff be 4c ee 19 3e
       -0.31483984 0.37264723 -0.49982238 0.1503231
0001b0 84 1f 3b 3e 30 70 8a 3d f2 4f 92 be 50 84 b9 bd
       0.18273741 0.06759679 -0.28576618 -0.0905844
0001c0 20 e6 ee 3d 28 6e 9c bd a8 e2 9f be a4 f9 ce be
       0.116649866 -0.07638198 -0.31227612 -0.40424836
0001d0 96 73 bf be 90 71 7b 3d 30 4a 50 bd 40 58 a1 3c
       -0.37392873 0.0613876 -0.050852 0.019695401
0001e0 f0 ba 23 bd 98 45 85 bd 60 23 58 bd 5c ba d5 be
       -0.0399732 -0.065074146 -0.05276811 -0.41743743
0001f0 22 56 be 3e cc 39 19 3e fe 4e ec be ca 5e 93 be
       0.3717509 0.14963454 -0.46154016 -0.28783256
000200 30 a1 d6 3e 3e 61 84 be a0 09 c2 3d 90 e6 a4 3d
       0.4191985 -0.2585544 0.09474492 0.08051789
000210 34 15 2c be 94 fc 3d 3e 7c a9 85 be 82 14 d8 3e
       -0.16804963 0.18553382 -0.2610587 0.42203146
000220 f8 bf e9 bd d0 4a e3 bd 50 42 bf 3e 4e 53 86 3e
       -0.11413568 -0.11098254 0.3735528 0.2623543
000230 b6 38 bf be a4 bc a4 3e f0 8c 8a be 74 49 a0 3e
       -0.37347955 0.3217517 -0.27060652 0.3130604
000240 9c 25 3b be 80 b8 ff 3d a0 cf fc bd 54 b9 53 be
       -0.18276066 0.124863625 -0.12344289 -0.20676166
000250 1a 4c 8d 3e c4 41 64 be 60 f9 06 be 24 59 1f 3e
       0.27597123 -0.22290713 -0.13181067 0.15561348
000260 c8 af fc 3d c0 b3 67 bd a4 05 58 be e0 7b ef be
       0.12338215 -0.056567907 -0.21095902 -0.46774197
000270 40 78 ac 3d 5a 85 ed 3e fa d1 b8 3e 38 2c 12 be
       0.08421373 0.46390802 0.360977 -0.1427468
000280 d0 4e cd 3e 14 97 7d 3e a8 53 02 3e e2 3e c5 be
       0.40099192 0.24764663 0.12727225 -0.38524538
000290 ee 73 80 be bc fc fd 3e 1e 38 a5 3e 3e 21 e4 be
       -0.25088447 0.49606884 0.32269377 -0.44556612
0002a0 1c 43 bf be 72 54 de 3e d2 11 8d 3e 24 07 68 be
       -0.37355888 0.43423802 0.27552658 -0.22658974
0002b0 50 9f fd bd 9e 4d 86 3e ec 56 c2 be 18 ff e1 bd
       -0.12383902 0.26231092 -0.3795694 -0.110349834
0002c0 44 75 c4 3e 04 6f 6b be d8 79 05 be 04 fd 87 be
       0.38370717 -0.22991568 -0.13034761 -0.26560223
0002d0 44 78 0d 3e 2e 95 93 be 8e f1 94 3e 30 a8 c2 3d
       0.13815409 -0.28824753 0.29090542 0.095047355
0002e0 4e 62 e3 3e d0 7c 04 3e 22 95 c0 3e 3c 2a af be
       0.44410938 0.12938237 0.3761378 -0.3421191
0002f0 c8 8e 37 be 92 6a b4 3e b0 c1 64 3d ec 85 17 3e
       -0.1792556 0.35237557 0.055848777 0.14797181
000300 3c 9f fd 3e 30 2f 53 bd dc 2b 76 be 12 4d b4 3e
       0.4953555 -0.051558673 -0.24040169 0.3521505
000310 20 eb da 3d a4 e1 a1 3e a4 58 5b 3e a8 ac 22 3e
       0.10689378 0.31617463 0.21420532 0.15886176
000320 68 21 05 3e 80 5c df 3d b0 2a b3 bd e0 88 c4 bd
       0.13001025 0.10906315 -0.08748376 -0.09596419
000330 70 d6 f9 3d dc 9b db be 20 69 b6 3d 74 f7 8f 3e
       0.12199104 -0.4289235 0.0890677 0.2811848
000340 30 5a fc 3e 9c 59 fd 3e a8 18 22 3e 04 ba 85 be
       0.49287558 0.4948243 0.15829718 -0.2611848
000350 f0 52 73 3e b8 5a 53 3e 38 e8 f0 be ec 54 65 3e
       0.23762107 0.20640075 -0.4705217 0.22395676
000360 00 8b d7 3b 42 7a c2 be e0 71 a6 3c c8 83 82 be
       0.0065778494 -0.379839 0.020317972 -0.25491166
000370 06 c2 95 3e e8 2a cd 3d 40 5e d7 3e 8c 66 3b be
       0.2924959 0.10017949 0.42064095 -0.18300837
000380 da 0c 98 be 00 0f 27 be 9a 70 8e 3e de d2 f6 be
       -0.29697305 -0.16314316 0.27820283 -0.48207754
000390 56 d9 c4 3e 8a 30 a6 3e 04 4e 11 3e e4 fe a2 be
       0.38447064 0.32458907 0.14189917 -0.3183509
0003a0 90 35 b3 3d 6c 9f 7d 3e dc 24 26 3e 30 d4 99 be
       0.087504506 0.24767846 0.16224998 -0.300447
0003b0 60 28 86 3e 4e 0b c1 be d8 25 84 3e 10 8a 83 bd
       0.2620268 -0.37703937 0.25810122 -0.06422818
0003c0 e8 17 62 3e 18 77 f9 be 64 74 12 3e 3c 8f 3d be
       0.22079432 -0.48723674 0.14302212 -0.18511671
0003d0 18 df ca 3d 96 1e c2 3e c2 79 fe 3e 40 cc 40 3e
       0.09905833 0.3791396 0.4970227 0.18827915
0003e0 f8 0c 87 3d 76 6f f3 be 4e 72 e2 3e 20 06 7d 3e
       0.065942705 -0.47545975 0.44227833 0.24709368
0003f0 d8 cb 0a be 90 42 3e be 50 53 8a 3e fe 67 92 3e
       -0.13554323 -0.18580079 0.27016687 0.28594965

layer2.bias f4 [24]
000000 00 00 00 00 00 00 00 00 00 00 00 00 00 00 00 00
       0.0 0.0 0.0 0.0
000010 00 00 00 00 00 00 00 00 00 00 00 00 00 00 00 00
       0.0 0.0 0.0 0.0
000020 00 00 00 00 00 00 00 00 00 00 00 00 00 00 00 00
       0.0 0.0 0.0 0.0
000030 00 00 00 00 00 00 00 00 00 00 00 00 00 00 00 00
       0.0 0.0 0.0 0.0
000040 00 00 00 00 00 00 00 00 00 00 00 00 00 00 00 00
       0.0 0.0 0.0 0.0
000050 00 00 00 00 00 00 00 00 00 00 00 00 00 00 00 00
       0.0 0.0 0.0 0.0

layer3.weight f4 [24, 24]
000000 80 2a 20 3e e2 59 83 3e 48 2c af 3e 90 62 75 3e
       0.15641212 0.25654513 0.3421347 0.2396338
000010 90 73 b7 be 9c 1a ea be 52 13 85 be 3c 85 4c 3e
       -0.35830355 -0.45723426 -0.25991303 0.199727
000020 d4 bd e0 3e 48 09 b1 be 54 83 8e be a4 c9 85 be
       0.43894827 -0.34577394 -0.2783457 -0.26130402
000030 50 ae a4 bd ec 05 36 3e b6 da fc be 8c 0e 93 be
       -0.0804106 0.17775697 -0.49385613 -0.28722036
000040 5a 4b c3 3e c0 a8 70 be 2c 4b 5e 3e 6c 60 2e be
       0.38143426 -0.23501873 0.21708363 -0.1702897
000050 a8 61 88 bd b8 af ba 3d 00 c0 b7 bd ca cb dd be
       -0.066592515 0.09115547 -0.08972168 -0.4331954
000060 60 b8 d4 bd a2 ce ce be 4e da 8c be 5e 56 9c be
       -0.10386729 -0.40392023 -0.27510303 -0.30534643
000070 ce 94 fd 3e 88 50 ba bd f2 59 8f be 80 7e 0f bd
       0.4952759 -0.09097391 -0.2799831 -0.03503275
000080 e8 b5 f9 3d a8 2a c7 3e 50 44 89 3e 4e a8 9c be
       0.12192899 0.38899732 0.2680993 -0.30597156
000090 50 01 a1 bd e8 45 c9 3d 18 59 f2 3e 30 72 9b be
       -0.078615785 0.09827787 0.47333598 -0.30360556
0000a0 d6 be 89 3e 60 5b 58 3e e2 df 91 be 00 c3 ae be
       0.2690341 0.21128607 -0.28491122 -0.34133148
0000b0 38 7d a8 3e f2 c8 f3 be a0 03 d1 bd 80 d6 ce 3c
       0.32908034 -0.47614247 -0.102057695 0.025248766
0000c0 88 a5 a2 bd c0 3b 34 bc 62 92 a7 3e 3a d6 f7 be
       -0.07941729 -0.011000574 0.3272887 -0.4840563
0000d0 64 de 13 3e 30 bf 81 3d 30 80 27 be 00 0b c3 bd
       0.14440304 0.06335294 -0.16357493 -0.095235825
0000e0 86 a1 d2 3e 04 cf 9e be 1e 0a 9a be e2 64 f0 3e
       0.41138858 -0.31017315 -0.30085844 0.46951967
0000f0 10 a5 9d 3e fa ee 9e be a0 1a 47 3d f2 9c ae be
       0.30789995 -0.310417 0.048609376 -0.34104115
000100 60 ea fc 3c 34 19 e4 3e ca 94 8e 3e 28 7e 00 3e
       0.030873477 0.44550478 0.27847892 0.12548125
000110 90 1c 34 3d 20 0b b9 3d 56 79 90 3e bc 06 fd 3e
       0.04397255 0.09035325 0.28217572 0.494192
000120 f8 08 cb 3d 54 1b 18 be 08 29 5b 3e 28 c1 f4 3d
       0.0991382 -0.14854175 0.21402371 0.11950904
000130 86 e5 ae be 4c 55 cb be 14 64 b9 3e d0 da a6 3d
       -0.34159487 -0.39713514 0.36209166 0.08147204
000140 5c ba 9f 3e fa 96 cb be e8 f4 cc 3d 08 e9 bd be
       0.31196868 -0.39763623 0.1000765 -0.3709185
000150 60 c8 f1 3e 74 ae d5 be 94 42 59 be 14 c7 48 be
       0.47223186 -0.4173466 -0.21216804 -0.19607192
000160 20 db ad 3e 96 d6 bb be 56 8a db be 24 81 cc be
       0.33956242 -0.36687154 -0.4287898 -0.39942276
000170 4e d6 8e be e0 dd f9 3d d8 90 3a 3e e0 ba 39 3d
       -0.27897877 0.122005224 0.18219316 0.045344234
000180 0a ad a0 be 6c 61 f2 be d4 bb d0 be d4 a7 b5 be
       -0.31382018 -0.47339952 -0.407683 -0.35479605
000190 f0 28 32 3e c0 64 42 3c 00 b4 ea bc 40 75 17 3e
       0.17398429 0.011864841 -0.028650284 0.14790821
0001a0 ba 12 a9 3e 88 c9 86 bd 20 d6 c0 3d ec 73 ff be
       0.330221 -0.06581408 0.09415841 -0.4989313
0001b0 f0 c0 f9 be e4 2d c6 3e 30 ce 54 bd 10 a3 44 be
       -0.48780012 0.38706887 -0.05195445 -0.19202828
0001c0 00 e7 7c bb 9a fa bf be 08 74 98 bd 80 fc f4 3b
       -0.0038589835 -0.3749588 -0.07444006 0.0074763894
0001d0 74 1a ea 3e 50 ce 1d 3e 68 17 91 3d a8 77 29 be
       0.45723307 0.15410733 0.070845425 -0.16549551
0001e0 78 18 5d 3e a8 35 17 3e c8 b7 94 3d b0 d4 87 bd
       0.21591365 0.14766562 0.07261616 -0.06632364
0001f0 dc 3a 5b be 98 ce 2d 3e 4c 85 15 be a2 53 e3 be
       -0.21409172 0.1697334 -0.1460163 -0.44399744
000200 b0 64 67 be 28 c8 1c be 70 f6 6e be 90 aa c0 be
       -0.22597003 -0.15310729 -0.23336196 -0.3763013
000210 78 95 78 3e 40 77 c8 bc 82 1b 85 be 78 92 db be
       0.24275768 -0.024470925 -0.2599755 -0.42885184
000220 24 93 e8 be b8 78 cc be c8 a6 c6 be 94 de 0f be
       -0.4542476 -0.3993585 -0.3879912 -0.1404975
000230 ac 71 31 be 60 d2 bb be be dd a1 be f0 22 61 be
       -0.17328519 -0.3668394 -0.31614488 -0.21985984
000240 64 0a dd 3e a8 af dc 3d b4 00 5a be d0 f2 27 3d
       0.4317199 0.10775691 -0.2128933 0.04100305
000250 d0 7c 83 3e c4 01 d0 be fc 3f 72 be b6 2f bd be
       0.25681162 -0.40626347 -0.2365722 -0.36950463
000260 38 5b e4 3e ee 70 ac be a6 a5 ab be 22 de b3 be
       0.44600844 -0.3367991 -0.33524817 -0.3513041
000270 88 af 4d 3e d0 5e 73 3d 34 0d fb 3e 90 14 19 3d
       0.20086491 0.059416592 0.4903351 0.037373126
000280 00 d7 50 bb c8 4c 55 be a6 8a 9b 3e 7c 6c b3 3e
       -0.0031866431 -0.20830071 0.30379218 0.35043705
000290 9a 63 f5 be 80 c6 94 bd 30 37 c6 bd 80 3b d9 3e
       -0.47927552 -0.07264423 -0.09678495 0.42428207
0002a0 2a c7 c6 3e 1a 9d de 3e ae 86 cd 3e f0 42 88 be
       0.38823825 0.43479234 0.40141815 -0.2661357
0002b0 bc c0 0f 3e 00 4a 77 bb 48 1f d0 be c4 2b a1 be
       0.14038366 -0.0037733316 -0.40648866 -0.31478703
0002c0 10 22 f4 3e f8 3a 79 be 12 9d 92 be 1a 9c f8 3e
       0.47682238 -0.24338901 -0.2863546 0.48556596
0002d0 14 14 23 3e 68 78 92 3d dc ba fa be 80 30 1a 3e
       0.15925628 0.07151872 -0.48970687 0.15057564
0002e0 88 65 29 be 80 d9 79 3c 1e ca da be 70 5e 5e be
       -0.16542637 0.01524961 -0.42732328 -0.21715713
0002f0 40 4c f9 bd e0 d1 1c bd e0 8d 3e 3e 6c b8 cb be
       -0.12172747 -0.03828609 0.18608809 -0.3978914
000300 18 d5 72 3e 46 a8 bd 3e 7c f0 81 3e ba fd 95 be
       0.23714101 0.37042445 0.25378788 -0.2929514
000310 e8 c3 6c 3e 30 3b ed 3e cc 0f b7 be 1a 78 ee be
       0.23121607 0.4633422 -0.3575424 -0.46576005
000320 20 48 75 3d 52 89 a2 be 60 d0 d7 3d 12 ae a1 3e
       0.059883237 -0.31745392 0.10537791 0.31578118
000330 2e cf fb 3e 80 a7 25 bd 18 d6 61 3e 00 9d 77 bb
       0.49181503 -0.040442944 0.22054327 -0.0037782788
000340 50 3e ab be 00 9e 1e 3c a0 e2 69 bd 60 fe cb bd
       -0.33445978 0.009681225 -0.057100892 -0.099606276
000350 50 b3 e9 bd c0 5c 82 3d 20 a4 d4 bc 36 22 84 be
       -0.11411154 0.06365347 -0.025957167 -0.2580735
000360 30 c0 4c bd 2c 3d 84 3e ee bc a7 be bc e7 32 be
       -0.04998797 0.2582792 -0.3276133 -0.17471212
000370 44 42 c4 3e 42 29 d5 be 0e 7b dc be 98 65 ae 3e
       0.38331807 -0.4163304 -0.43062633 0.34061885
000380 2e 7c fd be 9c d0 de 3e 12 dd 9d 3e 00 b8 dd b9
       -0.49508804 0.4351853 0.30832726 -0.00042289495
000390 90 6b 3e bd 20 86 c1 3d 4c 5e 12 be 98 71 be be
       -0.0464893 0.094494104 -0.14293784 -0.3719604
0003a0 8e f0 85 3e 00 2d 21 bb 10 ee 81 be 70 1e 63 3e
       0.2616009 -0.0024593472 -0.2537694 0.2217958
0003b0 62 f8 d1 be 3c 9b 98 3e 40 ff f3 be 06 b4 bc be
       -0.41009814 0.29805934 -0.47655678 -0.36856097
0003c0 4c a3 ea be b0 52 45 3e ac 5e 27 3e ce c6 9c 3e
       -0.4582771 0.19269824 0.16344708 0.30620426
0003d0 ce 98 a1 3e 62 de ab 3e cc f1 e0 be 7e 22 b0 3e
       0.31561893 0.33568102 -0.43934476 0.34401315
0003e0 a4 ae 8b be a4 f7 83 3e 30 6e ef 3d 52 2f c1 be
       -0.27281678 0.25774872 0.116909385 -0.37731415
0003f0 b2 f3 dd 3e de ef c5 3e 8c 74 ef be ba c0 b1 3e
       0.43349987 0.38659567 -0.46768606 0.3471735

layer3.bias f4 [24]
000000 00 00 00 00 00 00 00 00 00 00 00 00 00 00 00 00
       0.0 0.0 0.0 0.0
000010 00 00 00 00 00 00 00 00 00 00 00 00 00 00 00 00
       0.0 0.0 0.0 0.0
000020 00 00 00 00 00 00 00 00 00 00 00 00 00 00 00 00
       0.0 0.0 0.0 0.0
000030 00 00 00 00 00 00 00 00 00 00 00 00 00 00 00 00
       0.0 0.0 0.0 0.0
000040 00 00 00 00 00 00 00 00 00 00 00 00 00 00 00 00
       0.0 0.0 0.0 0.0
000050 00 00 00 00 00 00 00 00 00 00 00 00 00 00 00 00
       0.0 0.0 0.0 0.0

layer4.weight f4 [2, 24]
000000 e4 00 d1 be f0 88 f8 3d f8 36 82 bd 34 0c 6f be
       -0.40820992 0.12135494 -0.06358141 -0.23344499
000010 c0 89 7f bd 64 65 eb be b4 b7 50 3e cc 24 5d be
       -0.062387228 -0.45975792 0.20382577 -0.21596068
000020 46 f2 b2 3e 40 28 6a bc 0c 5a ec 3e fe 9a b7 be
       0.34950465 -0.014291823 0.4616245 -0.35860437
000030 7e 7b a8 be 72 d6 c7 3e 0a 8b 8a be 50 c1 00 3e
       -0.32906717 0.39030796 -0.27059203 0.12573743
000040 e4 fa 44 3e 28 ec b4 3d 10 93 ac 3d 2e d6 b2 3e
       0.19236332 0.08834106 0.084264874 0.3492903
000050 f0 f5 aa 3e 00 fa 31 3b 40 70 a7 bc 38 ce 89 3e
       0.3339076 0.0027157068 -0.020439267 0.26915145
000060 b2 aa d1 3e 30 68 a0 3e 04 be 1a 3e c0 5e d9 3d
       0.40950543 0.3132949 0.15111548 0.10613775
000070 70 f4 2a bd c0 cb f8 3e bc ef 21 be 1c b1 ca 3e
       -0.04173702 0.4859295 -0.15814108 0.3958825
000080 c8 6e f1 bd 12 89 fc be 7e 01 c2 be 0a f6 ae 3e
       -0.11788708 -0.49323326 -0.37891763 0.34172088
000090 7c 04 b2 be 1e a4 ba be 0e c0 9a 3e ae 53 84 be
       -0.34769046 -0.36453336 0.3022465 -0.25845093
0000a0 e0 60 8d 3d 46 69 94 3e 00 aa 71 bd 84 2f e8 3e
       0.06903243 0.28986567 -0.059000015 0.45348752
0000b0 c2 42 c5 3e ca 53 84 be 98 6d 96 3d 24 b5 32 3e
       0.38527495 -0.25845176 0.07345122 0.17451912

layer4.bias f4 [2]
000000 00 00 00 00 00 00 00 00
       0.0 0.0
