q_model_blackjack.pth (torch, 7887 bytes, 8 tensors)

layer1.weight f4 [24, 3]
00000000: d3ad 6ebf b6da e9be 0c4d a93e 1c4c 723f
00000010: b094 a63f ec8d 77bf 6cd4 6bbf b1d7 04bf
00000020: 5cfc 09bf 0f88 613f bf9b 783f 6552 4dbf
00000030: ea77 883e d076 1fbe f7f0 1ac0 90fb c8be
00000040: aab9 9abf fa05 093f 6e08 80bf db57 05bf
00000050: 3d5b 05bf b106 fdbe dd30 873f d931 33bf
00000060: 30d6 e53e 490c 3cbf 594c 64bf fe6a 27bf
00000070: 2082 863f ecac cdbf b6cb 2fbf b039 04bf
00000080: d6d3 71bf 8fc4 a33d 1e24 9d3e c89c a33f
00000090: 4ae3 e7be 3da9 66bf 9aac a8bf fd81 63bf
000000a0: c829 46be 43e8 48bf a834 a5be 6ad0 90bf
000000b0: 4085 07be 7081 d1bd 8d4d 5dbf 2222 95bf
000000c0: a2c2 8ebf 9304 913f 67b1 673f d722 953f
000000d0: f8a3 a9be 17d9 18bf b299 573f cafc 333f
000000e0: 2d0e c8bf 56b4 dbbb fee6 2e3e d642 dd3f
000000f0: 535f 2a3f ca06 823e d69f 423f 6492 373f
00000100: 3f1f 30bf be17 a93f 2311 2d3f 4dab 923f
00000110: ef32 52bf dc29 76bd 783d 9c3f baf6 c7bf
-0.93233985 -0.45674676 0.33066595 0.94647384 1.3014126 -0.9670093 -0.92121005 -0.5189162
-0.53900695 0.88098234 0.9711265 -0.8020385 0.26653987 -0.15572667 -2.4209573 -0.39254427
-1.208791 0.53524745 -1.0002573 -0.5208718 -0.52092344 -0.49419168 1.0561787 -0.69997936
0.44889975 -0.73456246 -0.89179 -0.6539763 1.0508461 -1.6068397 -0.68670213 -0.51650524
-0.9446386 0.07996475 0.30691618 1.2782221 -0.45290595 -0.9010199 -1.3177674 -0.8887022
-0.19351876 -0.78479403 -0.32266736 -1.1313603 -0.13234425 -0.10229766 -0.8644646 -1.1651042
-1.1153147 1.1329521 0.9050507 1.1651257 -0.3313291 -0.5970625 0.84218895 0.703076
-1.5629326 -0.0067048473 0.17080304 1.7286022 0.66551703 0.25395805 0.7602514 0.7170775
-0.6879768 1.321037 0.67604274 1.1458527 -0.8210897 -0.060098514 1.2206259 -1.562217

layer1.bias f4 [24]
00000000: 0000 0000 e1ff 13bf 0000 0000 e1a3 393e
00000010: 384d 6ebc 0000 0000 0000 0000 771f 46bf
00000020: 88a3 65bf 7387 8f3f 0000 0000 c0a8 743f
00000030: 0000 0000 0000 0000 0000 0000 0000 0000
00000040: 3476 90be 7b26 8cbe d641 1e3f 8682 fabb
00000050: cde2 2b3f 2ae9 30bf 64db 5a3e de1c e5be
0.0 -0.57812315 0.0 0.18128921 -0.014544778 0.0 0.0 -0.7739176
-0.89702654 1.1213211 0.0 0.9556999 0.0 0.0 0.0 0.0
-0.28215182 -0.27373108 0.6181921 -0.007644954 0.67142946 -0.6910578 0.21372753 -0.44748586

layer2.weight f4 [24, 24]
00000000: 462c aebe 28cc 9bbe 6818 e33e dfee e43e
00000010: 9a26 423e 8072 fb3e d0a1 163e b975 c6be
00000020: eb52 743d dc27 d03e 1020 73be b763 efbd
00000030: 303d 303d 40f1 70bd a82c 893e 4041 273e
00000040: 912e ff3e dd27 09bd ba65 0e3e 004b 34be
00000050: 159e 28be c88d 3ebe 6c25 e73d 1bb1 ae3e
00000060: acbf 7e3e 09f6 f13d 34df 62be 1ba8 bcbe
00000070: 0884 1a3f da45 d3be 34ef 7b3e 9865 023f
00000080: 8c4a 663e 565d 93bd 88f6 123e 385b 19bf
00000090: f40b acbe 1830 e5bd b079 50bd ca65 fb3e
000000a0: 626e 29be d5a2 b33e accd a43e 9be0 13bf
000000b0: 0d5f d73e b2cd 993d 4b37 1dbe a584 0d3f
000000c0: 00ce a43e fb4b dabe acac f73e 0d70 e23d
000000d0: b4e5 e9be 80ba f5bd f0fa cb3d c82f edbd
000000e0: f051 c53e 887b a73e eccd a3be 03e2 573e
000000f0: a007 b6be b887 ea3d 4477 5a3e 7874 553e
00000100: 80aa 5dbc 4751 9b3e 4197 adbe 2184 903e
00000110: 750f 39be c0e0 363c 7dcf 813e 6c80 9cbe
00000120: bc5b 023e 520b 39be 280c 82bd d1cc b4be
00000130: 08f2 573e 8011 f1be ecb3 74be 0667 613e
00000140: 949c 51be 9d6d e23e 9877 f43e 4b5f bd3e
00000150: 18da dabe fe9f 86be eef2 ef3e b875 ad3e
00000160: baac a73e 3821 8fbe 616d bbbe fe8e a6be
00000170: 807f 97bc c80a 13be 14bf 653e 51b3 0abe
00000180: 489e 0bbe c271 bc3e 4cc8 a4be 535f a23d
00000190: a380 0fbe 8020 8c3d 1440 dcbe a2ca 7d3e
000001a0: 12ab eb3e 6d03 c83e 448e d4be 801d 8b3e
000001b0: c8bf 3f3e 2289 f63e 4c45 d63e b820 c1bd
000001c0: b8af 53be 3022 f9bd 636e 5e3d 1d26 29be
000001d0: 51eb bc3e f6cd 78be 3fe5 773d 3bd7 0fbe
000001e0: 8088 ce3c 7011 363e b024 c6be 3ad4 b43e
000001f0: 1fae a6bd 0ea8 a0be 1a4c e4be 3fa2 07bf
00000200: e0a3 653d f49a 51bd 52dc b3be 8f7c a9be
00000210: b434 023e 62f1 8c3e 8044 99bc a6b5 c6be
00000220: 5c1a e9be a590 afbe e0e4 d6bb 6d21 773f
00000230: 6841 193d f2f2 443e f76a 81bd 3663 bfbe
00000240: 84f3 943e 3fcd d7be f010 fbbd c320 d33e
00000250: 874e a5be fa23 81be 40d4 323c 75ea 0fbe
00000260: c85a eb3d efe3 c83d e6c5 f6be beab 123f
00000270: 4079 113c f0f9 45bd e6c1 f03e 50c9 393e
00000280: 5c8f b03d 0206 e1bd 3531 47be b057 aa3e
00000290: d888 fa3e cff7 253e c2ac 8abe 03a8 9e3e
000002a0: 8c12 8e3e 1428 b2be 5c45 7e3e e0a5 bb3c
000002b0: a82a b73d fa95 813e 30d9 74be 5cf2 ba3e
000002c0: 6a2a cabe a8a1 8ebd 507d 923e 082b dc3e
000002d0: c050 5bbc b2a1 8cbe 8893 a4bd d0df bc3e
000002e0: 24a4 b8be 2445 f33e ec6d e9be 62f0 a13e
000002f0: ba2a b5be 7e5c ebbe 7881 a23e 643c 1b3e
00000300: be09 b83e 3e89 01be b09b 643d 8bc1 4fbe
00000310: 9f6e 383e 8062 913c 5c02 30be f8d0 4abe
00000320: b813 963d eb4b 63be 001e ebbd b26f 18bf
00000330: 3089 fbbe d4af b1be 2230 87be 9cdf 0e3e
00000340: f04d e63e dea4 72ba 501d 393e 3c81 a9be
00000350: 3a73 aa3d d980 d53b 1267 ab3e c599 633c
00000360: 803f 27bc c40a 993e e0b9 14be 7b9f 313e
00000370: 8b14 a53e a663 803e 702f 563e 2915 cf3d
00000380: 05df bcbe 1a72 a63d b8c3 983e 6f70 8e3d
00000390: a444 aa3e e041 e5bc a4d9 1bbe d625 9abe
000003a0: de03 3cbe 680d 2a3c 08ed afbd 928c c9be
000003b0: 2ada 6abe 67a2 7c3d 59e2 323e 3145 25bd
000003c0: 4ca9 a23e 9b53 adbe 7450 29be 505d 823e
000003d0: 1604 7fbe 400b 8c3c 3866 dd3e 0cc8 303e
000003e0: 973b 9b3e ae8b cfbe 646b 58be 08e1 7f3e
000003f0: 34e8 fc3e cc62 e13e b01f 1c3e b830 c93d
-0.34018153 -0.30429196 0.44354558 0.44713494 0.18960038 0.49110794 0.14710164 -0.3876169
0.05964939 0.4065541 -0.237427 -0.11688941 0.043027103 -0.058823824 0.26791883 0.16333485
0.49840215 -0.033485282 0.13905993 -0.17606735 -0.16466554 -0.18608773 0.112864345 0.34119496
0.24877805 0.118145056 -0.22155458 -0.36847004 0.60357714 -0.4126423 0.24602968 0.5093627
0.22489375 -0.07195537 0.14351857 -0.59904814 -0.3360287 -0.11190814 -0.0508973 0.49101096
-0.16546014 0.35085168 0.32188165 -0.57764596 0.42064705 0.075099364 -0.15353124 0.55280524
0.32188416 -0.42636093 0.48373926 0.11056528 -0.45683062 -0.11998463 0.09959972 -0.11581379
0.38539076 0.32711434 -0.31993043 0.2108231 -0.35552692 0.114516675 0.21334559 0.2084521
-0.01352942 0.30335447 -0.3390446 0.28225806 -0.18072303 0.011161983 0.25353613 -0.30566728
0.12730306 -0.18070725 -0.06349975 -0.35312513 0.21088421 -0.47083664 -0.2389676 0.22011957
-0.20469886 0.44224253 0.47747493 0.36986765 -0.42744517 -0.2629394 0.46865028 0.33878875
0.32748967 -0.2795503 -0.36606887 -0.3253097 -0.018493414 -0.14359581 0.22436172 -0.13544966
-0.13634598 0.3680554 -0.32184064 0.07928338 -0.14013915 0.068421364 -0.43017638 0.2478433
0.46028954 0.39065114 -0.4151479 0.27170944 0.18725502 0.481515 0.41849744 -0.09430069
-0.206725 -0.12164724 0.05430449 -0.16518445 0.36898282 -0.24297318 0.06052136 -0.14046948
0.025211573 0.1778009 -0.38699865 0.35318166 -0.0813868 -0.31378216 -0.4458931 -0.5298194
0.056064487 -0.051173165 -0.3512903 -0.33102843 0.12715417 0.2752791 -0.018709421 -0.38810462
-0.45527923 -0.34290043 -0.0065580457 0.9653538 0.037415892 0.19233301 -0.0631923 -0.3738038
0.29092038 -0.42148778 -0.1225909 0.41235933 -0.32286474 -0.2522276 0.010914862 -0.14054282
0.114919245 0.098091 -0.4819786 0.5729331 0.008879006 -0.048334062 0.47022933 0.18143201
0.08621094 -0.10987474 -0.19452365 0.33270025 0.48932528 0.16207813 -0.2708493 0.30987558
0.27748525 -0.34796202 0.24831146 0.022906244 0.08943683 0.25309736 -0.23910975 0.3651303
-0.39485484 -0.06964427 0.2861123 0.4300158 -0.0133859515 -0.27467114 -0.08035952 0.36889505
-0.3606273 0.47513688 -0.45591676 0.3162871 -0.3538416 -0.45969003 0.31739402 0.15159756
0.35944933 -0.1265001 0.055812538 -0.20288675 0.18010949 0.017747164 -0.171884 -0.19806278
0.0732798 -0.22196929 -0.114803314 -0.59545434 -0.49128103 -0.3470446 -0.2640391 0.13952488
0.44981337 -0.00092561345 0.18077588 -0.3310641 0.08322759 0.006515604 0.33477074 0.013891642
-0.010208011 0.29891026 -0.1452403 0.17345993 0.32242236 0.25076026 0.20916533 0.10111458
-0.368889 0.08127232 0.29836822 0.06955039 0.33255494 -0.027985513 -0.15219742 -0.30106992
-0.1836085 0.010379173 -0.08590132 -0.3936506 -0.22934785 0.061678316 0.17469157 -0.04034919
0.31769788 -0.33852848 -0.16534597 0.25461817 -0.24903902 0.017095208 0.4324205 0.17263812
0.303189 -0.40536255 -0.21134716 0.24988186 0.49395907 0.4402069 0.15246463 0.098237455

layer2.bias f4 [24]
00000000: 0ae7 4ebe d1f5 0bbf 5e67 66bc 622e fdbc
00000010: a3ca 0f3f 75e4 863d ca4c 753f 0000 0000
00000020: fbdb 08bf d392 6b3f 3f9a 26bf 88c5 8e3f
00000030: e215 3d3f 0000 0000 691a 6cbe 5490 abbc
00000040: 0000 0000 90b8 ccbd 0000 0000 ed3d d7be
00000050: 0000 0000 3642 8ebe 0000 0000 9c14 adbf
-0.20205322 -0.5467196 -0.014062731 -0.030905906 0.56168574 0.065865435 0.95820296 0.0
-0.53460664 0.9202091 -0.6507911 1.1154032 0.73861516 0.0 -0.2305695 -0.020942844
0.0 -0.0999614 0.0 -0.42039433 0.0 -0.2778489 0.0 -1.3521914

layer3.weight f4 [24, 24]
00000000: fa01 a2be 1256 eebe be27 a83e 2081 a03e
00000010: 1cca bdbe 60b5 48bd bb09 9cbd 90d7 30be
00000020: 22c6 88be 6dd5 c1be d799 ed3e 9439 213e
00000030: 5b5b c33d 2a86 9f3e d30d d9be dcc3 fb3e
00000040: 22b8 b7be 11b0 5a3e 54e0 3cbe f4dc a63d
00000050: 4c39 b63e 2654 de3e 7827 1d3e 8aa7 d2bc
00000060: a2a8 28ba c5ac f3be 90b8 58be 2ae6 f7be
00000070: eefb acbc 1e1c 4c3e 7634 1b3f 808e c13d
00000080: a919 6dbe e2b2 303e 956d 49bd c9d4 323c
00000090: e531 fb3e 9c77 46be fbb0 443e 669b a6bc
000000a0: 0a28 ad3e 5b62 0e3e 0854 8abe e6ef dc3e
000000b0: f03b 6fbe 4a42 333e 8889 1f3e 8310 11be
000000c0: b0ab 993d 74b5 86be 1bdb 343b 3ce6 4cbd
000000d0: dd4f 8d3e 4325 3bbe 0aab 653c ba37 f0be
000000e0: 7d69 f93e dd6a 84be ec0e 883d 648b 9c3e
000000f0: 4541 46be e0b7 a53c 92d3 8a3e 816f 1c3e
00000100: f469 e3be 8ad4 cd3e 4411 74be 64fd e33e
00000110: 9016 5bbd b04c a0be 4cc0 7a3e df28 e43e
00000120: fa96 88be a735 a1be e660 1abe 895d dabe
00000130: 460c fa3e e5d1 823e 9e26 e13e 04fd c3be
00000140: 5372 80be 9be4 68bd 3e1c 1a3f df24 0f3d
00000150: 114b 353d 1ef6 a33e a293 4a3d bd5f 703d
00000160: 625d f63e f2ff 3e3e ae4d 87be 6abf 1e3d
00000170: d4bd ee3e c84b b3be 168c aa3e a1ce a93e
00000180: 9c28 ad3e ec19 b8be 48cc eebd 885a bbbe
00000190: 4cdf 15be bad1 b63e 04c2 29be e481 70be
000001a0: 2c5d 3bbe 4014 573d 063e 863e d069 883d
000001b0: 4e7b eabe d6e5 a83e 0205 9c3e 7049 b4be
000001c0: 98b8 56be 6c3a babe 90d7 68be 4830 d03d
000001d0: a021 92be 8e99 c1be baa7 ccbe e010 e23c
000001e0: 0004 a63c e2fc 88be 1056 f4be 7036 2dbe
000001f0: 32ed 8d3e d0c0 f73e ec15 98be 44cb 313e
00000200: 3cc7 fcbe 5c8d b6be 76de f2be 7627 893e
00000210: 5896 8abe 9045 273d c87d 19be 7099 613d
00000220: 6202 b03e 84ae 503e 60ab b8be f27a bebe
00000230: e062 203d 00b0 c639 9441 ddbe 507c e7be
00000240: 24c9 1a3d dfe4 913e 2a23 273e 0db2 ae3d
00000250: b4c2 803e 1e3c f43e d114 83bd 349d 233e
00000260: f1a4 35be d979 d5be e0fe e4be 60b0 ce3d
00000270: 6351 91be 00a8 1fbb 0e19 213c 7728 973e
00000280: 10f5 6abd 3370 1c3d 124f 93be 5a15 103f
00000290: 1e43 e0be b3ba b8bc 5033 88be 0783 d43e
000002a0: d3aa bd3e a23a e2bd 9109 903e ddc0 afbe
000002b0: ac0d 17be af39 1ebd b1d2 373e a037 753e
000002c0: 73ce 00bf ee44 cc3e db14 133e 8a85 1b3f
000002d0: dee5 0a3f c417 a5be efbc f8bd 9571 f83d
000002e0: 64cf 19be 8b74 82be 80eb 513e aee3 a1be
000002f0: 9c6d 81be eaeb ec3e 4e16 a33e c00d d8be
00000300: 68bf 80be 18ed 883e 7834 dbbd 5023 cbbe
00000310: 620c aabe 882c 24be 802e 0fbc aa2f d5be
00000320: ccdc fcbe ac92 543e c6c1 9a3e d036 8dbd
00000330: b491 4abe ce3d cf3e 002f 673e 8c46 533e
00000340: 6258 ba3e 80bc 823b 3405 cd3e b85e 15be
00000350: cc66 c43e b8de ac3d f8ca 3ebe ee01 d6be
00000360: b45b eb3d b157 5cbe c592 d2be 3133 883d
00000370: ac8b 6a3e 527e c13d 96f5 f93d a29e fa3e
00000380: 969e 923e a6fe a93e e02c cbbd f3ae ba3e
00000390: 0d92 a43e 2ce3 25be 09ad e4bd 0da5 bd3e
000003a0: b8f5 e9be 054d 203c 006f aebe d4e6 c43d
000003b0: 3a23 b73e 158c 023e 2038 afbc a34e 993e
000003c0: 32ec 52be bf5d c73e f5ab 703e 063e 7c3e
000003d0: 032c 073f 31ac 97be ae84 fe3e 30be a8be
000003e0: 7c28 d23e 847d 203e 575e c63e 5c88 283e
000003f0: dbbe 613d fa6a be3e 94ef 0e3d 4b01 c8bd
-0.31642133 -0.4655004 0.3284282 0.31348515 -0.3706826 -0.049001098 -0.076190434 -0.1726973
-0.26713663 -0.37858143 0.46406433 0.1574462 0.09538909 0.31157047 -0.4239336 0.49172866
-0.3588267 0.21356227 -0.1844495 0.08147612 0.3559059 0.43423575 0.15347087 -0.025714654
-0.00064338197 -0.4759275 -0.21164155 -0.4841779 -0.021116223 0.19932601 0.60626924 0.09451008
-0.2315432 0.17255738 -0.04917677 0.01091499 0.49061504 -0.19381565 0.19208138 -0.020337772
0.3381961 0.13904707 -0.27017236 0.43151778 -0.23362708 0.17505756 0.15579808 -0.14166455
0.0750345 -0.26310313 0.0027596417 -0.050024256 0.27599993 -0.18275933 0.01401783 -0.46917516
0.48713294 -0.2586278 0.06643471 0.30575097 -0.19360836 0.02022928 0.2711454 0.1527691
-0.44416773 0.40201217 -0.23834711 0.4452926 -0.053488314 -0.31308508 0.24487418 0.44562432
-0.26677686 -0.31486246 -0.15076026 -0.42649487 0.4883749 0.25550762 0.43974775 -0.38278973
-0.25087222 -0.05685864 0.60199344 0.034947272 0.044261042 0.3202371 0.0494572 0.058685053
0.4811812 0.18652323 -0.26426452 0.038756765 0.46629202 -0.35018754 0.33310002 0.33165458
0.33820045 -0.35957277 -0.11660057 -0.36592507 -0.14635962 0.35706884 -0.16577917 -0.2348705
-0.18297261 0.052509546 0.26219195 0.06660807 -0.457972 0.3298785 0.3047257 -0.35212278
-0.20968854 -0.36372697 -0.2273848 0.10165459 -0.2854128 -0.37812465 -0.39971715 0.027595937
0.02026558 -0.26755434 -0.4772191 -0.16915298 0.27720028 0.48389292 -0.29704225 0.17362696
-0.49370754 -0.35654724 -0.4743535 0.2678792 -0.27067828 0.040837824 -0.14989388 0.05507797
0.34376818 0.20379072 -0.3606825 -0.37203175 0.039156795 0.00037896633 -0.43214095 -0.4521203
0.03778948 0.28494927 0.16322008 0.08530054 0.25148547 0.47702116 -0.06400455 0.15977937
-0.17738701 -0.41694525 -0.44725704 0.100922346 -0.28382406 -0.002436161 0.009832634 0.2952306
-0.057362616 0.03819294 -0.28771263 0.5628258 -0.43801206 -0.022549963 -0.26601648 0.41506216
0.3704439 -0.110463396 0.281323 -0.3432683 -0.14751309 -0.03862923 0.17951466 0.23947
-0.50315017 0.3989634 0.14363424 0.6075064 0.54257 -0.32244694 -0.12145411 0.12131039
-0.1502052 -0.2547954 0.20499992 -0.31619018 -0.25278938 0.46273738 0.31852955 -0.4219799
-0.2514603 0.26743388 -0.10703367 -0.3967538 -0.33212572 -0.16032612 -0.008739114 -0.41637927
-0.49387205 0.20759076 0.30225962 -0.0689522 -0.19782144 0.4047684 0.22576523 0.2063238
0.36395556 0.003989756 0.40043032 -0.14586914 0.38359678 0.08440918 -0.18632114 -0.41798347
0.114921 -0.21517827 -0.411276 0.06650389 0.22904843 0.09447922 0.12205045 0.48949152
0.28636616 0.33202094 -0.099206686 0.364616 0.32142678 -0.1619994 -0.11165816 0.37039986
-0.4569528 0.009783988 -0.3406906 0.096143395 0.35769063 0.1274875 -0.021389067 0.29942808
-0.20597914 0.3893871 0.23503096 0.24633035 0.5280153 -0.2962356 0.49710602 -0.32957602
0.41046512 0.1567288 0.3874385 0.16458267 0.055113655 0.37190992 0.03489645 -0.097658716

layer3.bias f4 [24]
00000000: a5cc 04bd c882 3a3e 3091 db3c 7f2f 593f
00000010: 0000 0000 0000 0000 de6b 27bf 8f29 a23f
00000020: 0000 0000 3e83 663f 81b7 8e3f 2379 26bf
00000030: cfaf 30bf f9a6 44bf d888 fcbd 0000 0000
00000040: 2de9 4fbf 4058 c7bb 0000 0000 afdf f7bd
00000050: 5c7c 86bf 0000 0000 f582 7e3e 761a 02bd
-0.032421727 0.18213952 0.02680263 0.848381 0.0 0.0 -0.6539897 1.2668933
0.0 0.9004401 1.1149751 -0.6502859 -0.6901826 -0.7681728 -0.123307884 0.0
-0.81215173 -0.0060835183 0.0 -0.12103211 -1.0506701 0.0 0.24854644 -0.031763516

layer4.weight f4 [2, 24]
00000000: 0969 ef3d 594a bfbe 0423 e6be d071 663d
00000010: f682 b53e 523e cebe eabe f6be 8790 b93e
00000020: 42ce a6be 874b d63e 6ce4 c93e 3d46 ad3d
00000030: 5d2a a23d 1929 d0bd 2950 c8bd 0456 d43e
00000040: 71c6 143d ef98 573e 08c5 e7bd 894b 85bc
00000050: 1ba4 333d c046 9dbc e0b4 d2be 438b 6cbe
00000060: f438 10be 24bc bb3e 4770 333e de18 963e
00000070: 18b5 933d 5030 d1bd 2eb7 a1be f61b 123f
00000080: 5049 c23e bc0e a13e a848 e03e 638d a7be
00000090: 73a4 44bf 2489 e7be 4fb1 fc3e 30a6 6ebd
000000a0: d26b cbbe 732e 7dbe 9804 fa3e 7b76 acbe
000000b0: a6fa 59be 7e07 dcbe e8c2 be3e 70c1 3abe
0.11689956 -0.3736141 -0.4494859 0.056260884 0.35451478 -0.40281922 -0.4819253 0.36243078
-0.32579237 0.41854498 0.39432085 0.084606625 0.079182364 -0.10164089 -0.09780914 0.41471875
0.03632206 0.21054433 -0.113168776 -0.01627137 0.043857675 -0.019198775 -0.41153622 -0.23099999
-0.14084226 0.36666977 0.17523299 0.29315847 0.07212275 -0.10214293 -0.31585068 0.57073915
0.37946558 0.31456554 0.43805432 -0.32725057 -0.7681343 -0.45221817 0.49354026 -0.058263958
-0.39730698 -0.2472475 0.4883163 -0.33684143 -0.21287021 -0.42974466 0.37258077 -0.18237853

layer4.bias f4 [2]
00000000: 67f1 973e 89e5 733f
0.29676363 0.9527212
